Machine_Learning/model_state/Attn_conv.pth (torch, 86547 bytes, 20 tensors)

conv1.weight f4 [32, 6, 3]
00000000: 9e22 abbe 45c4 3cbd 3bce eabd f431 9a3e
00000010: 706b 873d 81fe ba3e 33b3 97be a3d8 a7be
00000020: 7b0f 7abd 7106 783d 6596 013e f999 5f3d
00000030: 2352 ce3d d95f 8f3c d841 153c c77a 3ebe
00000040: d22b e8bd 4cf7 76be 6899 a93d 59b1 a23e
00000050: fb54 523e 1ac0 19bf ccd6 dabe d25d a3be
00000060: f90b a03d b9ec 913e cc24 0a3e 5bb8 dabc
00000070: a937 debd ad75 54bd 13e0 f63c b8b7 153e
00000080: 027d eb3d 25e5 b2bd 6336 873e 169b 953d
00000090: 2ae7 b83e b729 003f da42 663f e68b 88bf
000000a0: bbf1 4bbf 6390 3dbf 1414 323f e482 0c3f
000000b0: b056 9f3e 5726 0cbc 0efb 903c 28b5 8d3d
000000c0: 8682 ab3d ebcb a2bc 8dec 943e 005c f23d
000000d0: a579 30be e742 773d 3c4b 35bd 831a afbd
000000e0: 520d 5a3e c964 6dbe dfeb 96be d2f6 eb3c
000000f0: 8052 01be ef2f b1be efdf 10be 62eb 47be
00000100: 38bc 69be cafb 02be 0eaa f2bd a0ab e9bd
00000110: c8d5 6ebe e3b0 e8bd 12dc 59be 9eac 49be
00000120: 5f21 a7be 24aa 20bf c285 f9be 3070 003f
00000130: 872f ea3e 976e 483f f8e7 77be 50f4 75be
00000140: 61d1 41be 0a1f a7bd 384f 37be d302 61bc
00000150: 7419 a5bd 63f4 0e3e c14b a2bc 8261 363e
00000160: ee55 c1bd 2835 e33d 85dd 7fbd cb5a dcbe
00000170: 2d9d 11bd c8e7 b03e 49d8 abbd 1036 973e
00000180: d41a 063d 2fe6 8f3d 5e83 2cbd 91e6 303e
00000190: 9381 503e 25e0 0dbe 22da f63d 036c 2cbd
000001a0: 764f f13d 0856 f83d 8f03 dc3d e213 ef3d
000001b0: 5e65 713e 0077 163e 5fa6 cb3c 4d6f 90be
000001c0: 47eb 253b aadd 9bbd b895 09be 1cb3 8dbe
000001d0: 4bb5 ba3d 1b7e 6d3d 4056 35be a08c 3ebe
000001e0: d6b8 e93b 1dda 35be f2da 8cbc f72f 44be
000001f0: 5b49 b53c 4f4d c3bd 91bf d83d b299 0c3e
00000200: a5da c73e 7d44 e8be 5516 0ebf e159 02bf
00000210: 12e5 77bc b203 0e3e 7688 2b3e 8c9f 48be
00000220: 5f98 63bd 5e41 5c3e bfde 7a3e fe5e 753d
00000230: 7832 19bd ec51 1c3e e6bc 4b3d eb92 8bbd
00000240: a341 193f 8643 293f 7171 cf3e 402b 7abf
00000250: 68ab 8abf c7aa 7abf b11d 063e bb7f 1b3f
00000260: 49f2 fd3e 5626 963d 4224 2c3e 9a63 c6bd
00000270: 4c22 c43d 8d80 1dbe 6698 c8be 5c70 38bd
00000280: 0d99 173e 5b0a e0bd 803d c6be b894 febe
00000290: 788f 88be 85eb 513d 3b46 4d3d d2e4 693e
000002a0: 6743 5cbc ac51 17be 5dd2 edbd 9787 673e
000002b0: c455 ecbd e928 c9bd b594 463c e631 85bd
000002c0: 6e35 dd3d 9650 8a3e 7562 163d 542c 003c
000002d0: f342 fb3e f553 b43e 4e31 273e b070 c7be
000002e0: 6092 29bf ed9d 58bf 90d6 d3bd 6e42 5b3e
000002f0: bef8 143e c35a dd3c 7937 15be 05c7 5bbe
00000300: 6881 b5bc 1b92 cfbd 308e 56be c83e d3bd
00000310: a641 c5bd e61e 0ebe 888b eb3e 6f62 a73e
00000320: 54fb db3e 5c0b eebe a720 f5be f944 36bf
00000330: 9073 e5bd c8b7 ac3d ad12 ba3b beb5 f63d
00000340: 23dd 23be db00 c2bc f13b acbe 5b0c 10be
00000350: 9133 2c3e 5de6 33be 1f1c 8fbd 87e9 a53b
00000360: 09f9 0dbe 6b39 60be cc01 35be b810 92be
00000370: 404b bfbd 822d 673d eb93 f13d 035e c2bc
00000380: eb74 8dbe c57e e7bd 0b0d 78be b212 58bc
00000390: 1783 b3bd ee8f 30bc a485 19bd 11e8 7d3d
000003a0: bf84 023d 2949 8abe 2705 adbe 08a2 1bbe
000003b0: 4eed aebe 721f b83e 1c3f df3e faaa f93e
000003c0: 7e05 d2bd 006b 9ebe 1aaa 2dbe 9e93 2abe
000003d0: 74ae 50be 9fc8 293e 0ad0 c13d 42ab 4a3d
000003e0: ee6f 13bd f787 d43d 9878 5b3e 7d2e 303e
000003f0: 491a 17bd 20f2 213e fdbd 013e dfa9 95be
-0.33424848 -0.046085615 -0.114651166 0.30116236 0.06612289 0.36522296 -0.29628906 -0.32782468
-0.06104992 0.060553018 0.12655027 0.0545902 0.1007426 0.017501758 0.009109937 -0.18601523
-0.11336483 -0.24117774 0.08281213 0.3177593 0.2054023 -0.6005875 -0.42742002 -0.31907517
0.078147836 0.28500918 0.134906 -0.026699236 -0.1085046 -0.051870037 0.030136144 0.14620864
0.11498453 -0.08735112 0.2640868 0.07304971 0.36113864 0.5006365 0.8994576 -1.0667694
-0.79665726 -0.7404844 0.69561887 0.54887223 0.31120825 -0.008554063 0.017697837 0.069193184
0.08374505 -0.019872626 0.29086724 0.11833954 -0.17233904 0.060366537 -0.044261202 -0.085499786
0.21294144 -0.23182978 -0.2947683 0.028804217 -0.12629128 -0.34606883 -0.14147924 -0.19523385
-0.22825706 -0.12791362 -0.118488416 -0.11409688 -0.23323739 -0.113618635 -0.21275356 -0.19694754
-0.32642648 -0.62759614 -0.48734862 0.50171185 0.45739385 0.78293747 -0.24209583 -0.24018979
-0.18927528 -0.08160217 -0.17901313 -0.0137335835 -0.080614954 0.13960414 -0.019811513 0.17810634
-0.09440218 0.11094123 -0.062467117 -0.4303802 -0.035550285 0.34551835 -0.083908625 0.29533434
0.03274043 0.07026326 -0.04211747 0.17275454 0.20361929 -0.13855036 0.12053324 -0.042095196
0.11782734 0.12125784 0.10742866 0.11673714 0.23573825 0.14693832 0.024859605 -0.28209916
0.0025317238 -0.076106384 -0.1343602 -0.27675712 0.0911661 0.05798159 -0.17708683 -0.18608332
0.00713263 -0.17758985 -0.017194245 -0.19158922 0.022129705 -0.0953623 0.105834134 0.13730505
0.39034 -0.45364752 -0.55502826 -0.50918394 -0.015130298 0.13868597 0.16751274 -0.19592112
-0.055565234 0.2150931 0.24499033 0.059905045 -0.037401646 0.15265626 0.049740694 -0.06815132
0.5986578 0.6611866 0.40516236 -0.97722244 -1.0833559 -0.97916836 0.13097264 0.60741776
0.4959891 0.07331531 0.16810706 -0.09686966 0.09576854 -0.1538107 -0.3917877 -0.04502903
0.14804478 -0.10939475 -0.38718796 -0.49722838 -0.26671958 0.05125 0.050115805 0.22841194
-0.013443804 -0.14777249 -0.11612389 0.22610317 -0.11539796 -0.09822256 0.012120415 -0.06503658
0.108012065 0.27014607 0.03671499 0.007823069 0.49074516 0.35220304 0.16327402 -0.3895316
-0.66238976 -0.84615976 -0.10343659 0.2141206 0.14548013 0.027020818 -0.14571942 -0.21462639
-0.022156432 -0.10135289 -0.20952678 -0.10314709 -0.09631662 -0.13878974 0.4600489 0.32692286
0.42965186 -0.46493042 -0.47876474 -0.71198994 -0.112036824 0.08433491 0.005678496 0.12046383
-0.16002326 -0.023682049 -0.33639482 -0.14067213 0.16816546 -0.17568345 -0.069877855 0.005063239
-0.1386453 -0.21896903 -0.17676467 -0.2852838 -0.09340525 0.056439884 0.11795791 -0.023726469
-0.27628264 -0.11303476 -0.24223725 -0.013188051 -0.08765238 -0.010776503 -0.037480965 0.061988894
0.031864878 -0.27008942 -0.33792993 -0.15198529 -0.34165424 0.3596149 0.43602836 0.48763257
-0.10254954 -0.3094101 -0.1695942 -0.16657874 -0.20379049 0.16580437 0.094635084 0.04947973
-0.035995416 0.10377496 0.21432722 0.17205234 -0.0368903 0.1581502 0.12670131 -0.29231164

conv1.bias f4 [32]
00000000: 6c90 823d e75d 8e3c f77a fabd 358a af3c
00000010: 9987 183e 36d5 183e bb3e ffbd 229d 503e
00000020: d6d2 60be 0a76 0bbe 3c24 5abe 285a 93bd
00000030: 64d4 96bd 12da 0dbe 93ed 793c 5008 bcbd
00000040: 5536 a4bb 7372 103e a7a0 39be fdbc d23c
00000050: b4fe e13d 9e3f 61be 3199 333e d413 693e
00000060: 37af 7ebd 4aa3 4a3e d954 28be c5d4 3cbe
00000070: 4447 c33d 7f4d 303e a8b1 33be 4985 db3a
0.063752025 0.01737876 -0.12230485 0.021428207 0.14895476 0.14925084 -0.12463137 0.20372441
-0.21955428 -0.13619247 -0.21302885 -0.0719493 -0.07364729 -0.13852718 0.015254396 -0.09181273
-0.0050113597 0.14106159 -0.1812769 0.025724882 0.11034909 -0.21996924 0.17538907 0.2276147
-0.062178817 0.19788852 -0.16438617 -0.1844054 0.09535077 0.17217062 -0.17548239 0.0016748096

conv2.weight f4 [64, 32, 3]
00000000: ac3b 06bd add7 f0bd 2b17 ffbd 40b5 743d
00000010: 0b7e f6bc 68ca b1bd e5f2 8fbe 3566 85bd
00000020: e24c 86bd 4cd7 37be 4b3f 2fbe 9108 51bd
00000030: 8546 87bd be43 983d 2004 b4bc 598b 88bd
00000040: c368 e63d 15bf 923c e28a 01be 0beb 04bd
00000050: 3ce2 0dbe 00db 11be f71f 21be 36cf db3d
00000060: 3dc8 82bc 9cb9 07be bee8 28be b42c dbbd
00000070: 8cab ea3b 0c99 eb3c 676a 96bd af02 16be
00000080: 0f20 c9bd 492c 97bd b382 abbd cc8c e8bd
00000090: 0e84 7cbd d61c dd3d 6abd 273e e728 c5bb
000000a0: 0e5f 553d f819 0d3d 14cc fc3d f0dd a93d
000000b0: 33e3 113d ff0f 6cbd 7019 cdbc 7a1c bbbb
000000c0: 262f c2bd 6c17 17be 3a8f abbe 34c2 1bbd
000000d0: c4f8 993d 87bd 3ebe 9af6 293d 46a4 843c
000000e0: 4595 1bbc a285 d9bd b88e c53d 0932 683d
000000f0: 6f4f 29be e67a 51bd 3abd 27be 993c 833d
00000100: c65c e4bc a15f 0d3c da71 0dbe c49d ddbd
00000110: 1214 5bbd 87ed 0b3e d925 c03d 8869 1dbd
00000120: c207 1dbe 5886 49be 9973 89be 72cf 6abd
00000130: 8e25 5ebd 5c29 1fbe 42c8 6d3d 6f7f 2d3d
00000140: 93b6 cfbd 1bfd c03d d9aa dbbd f237 26be
00000150: ca4c 36be 88c0 31bd dbd0 46bd 7e6c 20be
00000160: e198 453c 9052 ccbd 9071 dd3c cd52 ce3d
00000170: 57d0 103d 7f7a 7dbc c133 e0bd e5ff 0bbe
00000180: bfe7 e7bd dbe9 59bb 0293 003e 0833 ed3d
00000190: 581b 09bc 2e8b 763a 40f7 37bc 78b5 093d
000001a0: ba87 653c 9fe1 c3bb 51ad ed3d c9fb de3d
000001b0: 4192 39be 64b7 993d c067 693d 98c0 fcbd
000001c0: c651 283c d414 edbc 06d5 e13d d2b4 813d
000001d0: c86d 573e 9af3 1ebc f71e e4bd 65bd 4e3b
000001e0: 6bd1 233d 29de 093e ee70 093e e238 39bb
000001f0: 678f c53b 9e10 dabd a349 233e a688 343e
00000200: c5d8 9f3e 08e3 b4bc fc86 b73d 46ea 513d
00000210: bcd3 e63c 1fdb 093c 6bdf ec3d 50e9 f4bd
00000220: bf1e b9bd fa37 9b3d e822 a3bd 422b 053d
00000230: 50ae 933d 9a93 1e3e ab92 1c3e 641d 083e
00000240: 2cc1 86bc cb11 f6bc c947 be3d d876 0abe
00000250: 29a3 f4bd 2182 9d3d 4bd7 63bd 6ee1 1dbd
00000260: 5dc0 0dbe d9f2 e73c 7707 bfbd a0e9 04be
00000270: a2c0 1cbe 0898 8abd 5f0d 193d 9270 2ebe
00000280: 75d6 c6bd 233e 48be 1b68 a2bd f273 f0bd
00000290: ec46 3a3c 37e0 053d 193a af3d f941 143d
000002a0: 9dd6 663d 2961 083e eb11 8f3d abdd d93c
000002b0: 4292 0f3d cfe4 babc c32a 4b3d a183 933d
000002c0: eefb 79bd 6885 f83d a4a0 3d3d 3d30 a93d
000002d0: f0d2 0cbe d405 41bd e010 253e e44e 90bd
000002e0: 88cb c3bb 0b72 c93d d361 21bb a6ed d7bd
000002f0: b318 93bd c125 af3c 3cd0 c7bb 404a 9b3d
00000300: 78f7 9fbd dbe3 94bd 51e6 dabd 723f c13d
00000310: 7a15 503d 9ed5 a2bc 0a8f 863c f256 053e
00000320: d660 a6bd 58c0 f3bd 6569 abbb 323e dc3d
00000330: f908 1dbe 5f00 623c d80c 1b3e 47a7 123b
00000340: 9f6d 603d 6b78 f43d ef1d e33b 645b ebbd
00000350: a360 3abd c63a 04bc f43f f2bd 5bf6 a13d
00000360: 4e29 083c 8c98 1ebe b8c0 b9bd f52a 38be
00000370: a8da c63d 3bae 9bbb 8230 83bd d9df 86bd
00000380: 06e1 243c 7bc0 d9bd ac24 b2bd a99f 823c
00000390: b3c8 16bc affc c3bc 4b29 803d 1262 4bbd
000003a0: 85e7 633d 451b 0f3d 3592 863d c2a1 08be
000003b0: b5bb 38be f54a bebd 2972 a4bd 22da b8bd
000003c0: fd13 f73d 7cc2 513d 3d77 0b3e 59a5 223d
000003d0: ef38 de3b 612c 8a3d 9806 86bd da35 9d3d
000003e0: 112c e6bd 1669 5ebc 8321 d73c ec19 813d
000003f0: 1241 12be 7675 a5bd 8790 303a cace 27be
-0.03277175 -0.11759887 -0.12455591 0.059743166 -0.030089399 -0.08681184 -0.28115 -0.06513635
-0.06557633 -0.17953223 -0.17113988 -0.05103356 -0.066052474 0.07434796 -0.021974623 -0.066672035
0.112504505 0.01791338 -0.12650636 -0.032450717 -0.13855833 -0.14243698 -0.1573485 0.10732882
-0.015964622 -0.13254398 -0.16495034 -0.10701886 0.0071615633 0.028759502 -0.073445134 -0.14649461
-0.09820568 -0.073814936 -0.08374538 -0.1135498 -0.061649375 0.10796516 0.1638085 -0.006016839
0.052092604 0.034448594 0.12343612 0.08294284 0.035617065 -0.057632443 -0.025036544 -0.005710182
-0.09481649 -0.14755028 -0.3350771 -0.038027003 0.075181514 -0.18626986 0.041494943 0.016191613
-0.009496038 -0.106211916 0.09646362 0.056688342 -0.16534208 -0.051142596 -0.16380778 0.064080425
-0.02787627 0.008628757 -0.13812962 -0.10821107 -0.053485937 0.13664828 0.09382219 -0.03843072
-0.1533499 -0.19680154 -0.26846007 -0.05732674 -0.054235034 -0.15543121 0.05805231 0.04235786
-0.10142245 0.09423276 -0.10725946 -0.16232279 -0.1780273 -0.043396503 -0.048539024 -0.15666386
0.012060375 -0.09976685 0.02703169 0.10074387 0.03535494 -0.0154711 -0.10947371 -0.13671835
-0.11323499 -0.003325096 0.12556079 0.11581999 -0.008368336 0.00094048947 -0.011228383 0.033620328
0.0140094105 -0.005977824 0.11605323 0.10887868 -0.18122198 0.07505682 0.05698371 -0.12341422
0.010273403 -0.028940596 0.11026959 0.06333317 0.21037972 -0.009701634 -0.111387186 0.0031545993
0.03999464 0.13463654 0.13421986 -0.0028262665 0.006029058 -0.10647701 0.15946059 0.17630252
0.3122007 -0.022080913 0.08961293 0.05124881 0.028177135 0.008414059 0.11566051 -0.11958563
-0.090390675 0.07579036 -0.07965642 0.032511957 0.07210982 0.15485993 0.15290324 0.13292462
-0.016449533 -0.030037781 0.09291036 -0.13521898 -0.11945183 0.07690836 -0.05562524 -0.038545065
-0.13842912 0.028314041 -0.09327596 -0.12979746 -0.15307859 -0.06767279 0.037366267 -0.1703513
-0.09708873 -0.19554953 -0.07930013 -0.11740865 0.011369448 0.03268453 0.08556003 0.03619573
0.056357015 0.13318314 0.069858395 0.026594957 0.03505159 -0.022814183 0.049601328 0.072028406
-0.061031274 0.1213482 0.046295777 0.08261154 -0.13752341 -0.0471247 0.16119719 -0.07046297
-0.0059751906 0.09836205 -0.0024624958 -0.10543375 -0.071824454 0.021380307 -0.0060978215 0.075825214
-0.07810873 -0.072700225 -0.106884606 0.09435929 0.05080173 -0.019877251 0.016425628 0.13021448
-0.08123939 -0.11901921 -0.00523107 0.1075405 -0.15335454 0.013794034 0.15141618 0.0022377537
0.054792043 0.119370304 0.0069310586 -0.11492041 -0.045502316 -0.008070653 -0.11828604 0.07908317
0.008310629 -0.1548788 -0.09069961 -0.17985137 0.09709674 -0.0047509945 -0.064057365 -0.06585664
0.010063415 -0.10632416 -0.08698401 0.015945273 -0.009203124 -0.0239242 0.06257876 -0.049654074
0.055640716 0.034938116 0.065708555 -0.13342956 -0.18040355 -0.09291641 -0.08029587 -0.090259805
0.12064359 0.051210865 0.13619705 0.03970847 0.0067816894 0.06746746 -0.065442264 0.07676287
-0.11238874 -0.013574859 0.026261097 0.06303772 -0.14282635 -0.080790445 0.00067354034 -0.16387478

conv2.bias f4 [64]
00000000: 55b2 973c 00f6 8ebc 460b 0a3d 0098 5a3d
00000010: fb3a 813d 2c1f fcbc ce89 7e3d 3b92 443d
00000020: d886 d23c 4d1f 40bd c534 613c 4c48 75bd
00000030: 5ae8 4abd 3c09 533d e6f8 bbbd ec94 fb3c
00000040: 5d31 0a3e d4f2 a13d eb5b bfbd 050f fbbb
00000050: fffc 24bb 785e 803d c899 4f3d b7a9 a33d
00000060: 5533 2b3d f8f5 ffbc 5742 da3d 6e6a eb3c
00000070: b9d0 0bbd fa48 e33b f707 623d ac18 833a
00000080: 937f 253d 1cf0 ea3c 210f 1bbb 5114 953c
00000090: 0390 c7bb a7a9 93bd bc5a 0fbd 0e97 663d
000000a0: b4e3 66bd 5280 bdbc d7f4 febc deaf ee3c
000000b0: da5b 423b a930 03bd dec2 9fbd de3e c5bd
000000c0: d0b9 473d a457 c43b a471 a33d d226 aebc
000000d0: c19b 413c 1813 923c 7345 d83d ea29 073d
000000e0: a402 ba3d 37ea c33c f47b 003e ba04 25bd
000000f0: e2d9 9c3d 19e7 873d 61e1 55bd 8957 8dbd
0.018517653 -0.017451286 0.033702157 0.053367615 0.06310078 -0.030776583 0.06214314 0.04799102
0.025699064 -0.04690485 0.013745491 -0.0598834 -0.049537994 0.05152248 -0.09178333 0.03071066
0.13495393 0.07907644 -0.09343704 -0.0076617026 -0.0025175211 0.062680185 0.050683767 0.07991355
0.041797 -0.031245217 0.106571846 0.028737273 -0.0341346 0.0069361897 0.055183377 0.001000186
0.040404867 0.028678946 -0.002366014 0.018198164 -0.0060901656 -0.07210093 -0.03499864 0.0562964
-0.0563695 -0.023132477 -0.031122608 0.029136594 0.0029656799 -0.032028828 -0.0780084 -0.096311316
0.04876119 0.005991893 0.079806596 -0.021258745 0.01181692 0.01783137 0.105601214 0.032998957
0.09082535 0.023915393 0.12547284 -0.04028771 0.07658745 0.06635875 -0.05221689 -0.06901462

batch_norm1.weight f4 [32]
00000000: ea74 893f 0bd8 503f 49da 8f3f 208e 813f
00000010: d81c 703f 39ba 6d3f 743b 7c3f b9da 6b3f
00000020: 1d22 8e3f 2e09 613f edbb 883f 6d01 8a3f
00000030: aa43 653f 02ea 723f 045b 533f 3edd 763f
00000040: d11a 8d3f 942a 6d3f 7760 4e3f 19cf 683f
00000050: 79ab 703f f279 533f a97e 6d3f f11c 673f
00000060: f5c7 863f 4c52 713f bebb 843f 3220 6e3f
00000070: 18bc 873f ce66 533f 87b1 733f 9930 763f
1.0738804 0.81579655 1.123849 1.0121498 0.9379401 0.9286228 0.9852822 0.9213062
1.110416 0.8790463 1.068235 1.0781685 0.8955637 0.9488832 0.82560754 0.9643134
1.1023809 0.92643094 0.80615944 0.90941006 0.94011647 0.8260795 0.92771393 0.90278536
1.0529772 0.942662 1.0369794 0.93017876 1.0604277 0.8257874 0.9519276 0.96167904

batch_norm1.bias f4 [32]
00000000: c4cf 42bd 7f70 79bd 486a 153c 024c b2bc
00000010: a1f9 8e3d ce1e 2fbb 87f9 8fbd a8c5 4f3c
00000020: 790a 803e fdbe 3dbd f57b 113e f5cd 923d
00000030: 3f31 6fbb d89f 283d b454 eabc a3a5 c83d
00000040: baec a53d 0ddd 0cbd 8118 903d 46c2 8dbd
00000050: badc 8b3c 8bfe 543d 9238 85bd f363 27bd
00000060: 6300 f63d d969 a73c 3581 653e 4cef 643e
00000070: 6427 14be f73c 42be 4878 a13e d20e b9bd
-0.047561422 -0.0608983 0.009119578 -0.021764759 0.06981207 -0.0026721242 -0.070300154 0.012681402
0.2500799 -0.04632472 0.14207442 0.071681894 -0.0036497859 0.041168064 -0.028604843 0.09797218
0.08101793 -0.034390498 0.07035924 -0.0692182 0.017073024 0.052000564 -0.065049306 -0.040866803
0.120117925 0.020436214 0.2241257 0.2235691 -0.14468151 -0.18968569 0.3153708 -0.0903603

batch_norm1.running_mean f4 [32]
00000000: 290c 893d bd57 b7be 72f1 47bf 90e3 e2be
00000010: 308f 093f 577f ef3e a269 ccbe f6cd 32be
00000020: 6127 5abf 59da 353d bda4 63bf 1211 f9be
00000030: b20f c9be 1426 983e 2dcd 6bbe 5313 debe
00000040: 08bd 3ebf 1cb8 f2be e7cb ca3e 3e11 44be
00000050: 69fc 67bd 8cd7 283e dcf7 1ebe fa5e cc3d
00000060: e6c6 a5be b954 b93e 9f19 e53e 763a 15bf
00000070: 7443 2ebe ed28 f3bd 1482 1d3f 0833 96be
0.066917725 -0.35809126 -0.7810279 -0.4431424 0.5373411 0.4677684 -0.3992434 -0.1746138
-0.8521634 0.044397686 -0.88923246 -0.48645836 -0.39269787 0.2971655 -0.23027487 -0.43374118
-0.7450719 -0.4740609 0.3960869 -0.19147202 -0.0566372 0.16488475 -0.15524238 0.09979053
-0.3237831 0.3619745 0.4474611 -0.5829233 -0.17017919 -0.1187304 0.6152661 -0.2933581

batch_norm1.running_var f4 [32]
00000000: a519 0144 9210 b043 0a79 1343 2c4d f844
00000010: 535a 9543 9135 1544 ff10 1144 f9dc 8e43
00000020: 6e87 9743 edc9 8a43 b561 5544 cd50 d043
00000030: 39ea 1744 9305 1d44 c56b ab43 fdbf f443
00000040: 4629 0743 d149 e443 a66f af43 827d 1144
00000050: 49fc 5c44 3441 9343 f4aa cb43 bc96 3844
00000060: c7e6 c844 5d1e 2544 0f97 2444 90a9 3c44
00000070: 523c 8244 39e4 eb43 00c6 d143 039c 0544
516.4007 352.12946 147.47281 1986.4116 298.70566 596.837 580.26556 285.72635
303.05804 277.57755 853.5267 416.63126 607.6597 628.0871 342.84195 489.4999
135.16122 456.5767 350.87225 581.96106 883.94196 294.5094 407.33557 738.3552
1607.2118 660.4744 658.3603 754.6494 1041.885 471.783 419.54688 534.4377

batch_norm2.weight f4 [64]
00000000: 4303 923f 60f2 753f 8630 803f c246 703f
00000010: b900 8e3f 4aaf 8a3f 5322 783f d8db 703f
00000020: 20fe 963f c03d 803f 1206 723f 3cf5 7b3f
00000030: 86c6 7c3f 9ff1 863f 55e5 7e3f 8514 763f
00000040: 5626 7b3f 7a98 683f 69f8 5d3f 556b 613f
00000050: 55e8 803f cc26 7c3f 865a 7c3f b6a2 793f
00000060: 2d48 923f afb3 673f a5dd 823f f5f3 893f
00000070: 3554 893f 49a1 7f3f 42b4 6d3f 32b2 9c3f
00000080: 065d 783f 5f06 783f 08b1 783f 5dca 943f
00000090: 0cca 6d3f 42d6 6c3f 1e1a 893f 116b 8a3f
000000a0: b136 813f 4a05 793f a1f1 713f b0ce 853f
000000b0: 61db 753f b179 863f 1116 9a3f a275 7c3f
000000c0: 0a3b 8d3f 130b 843f 5981 5e3f c2a6 6f3f
000000d0: c159 973f 11c8 733f 0f81 823f b2a1 803f
000000e0: 6464 793f 1f83 673f ccfb 7c3f 446c 733f
000000f0: 9248 7c3f 5f7b 643f fed0 8e3f 022b 6d3f
1.1407245 0.9607296 1.0014808 0.9385797 1.109397 1.0834744 0.96927375 0.94085455
1.1796303 1.0018845 0.9454051 0.9842107 0.9874042 1.0542487 0.9956868 0.9612506
0.9810537 0.9085766 0.8670717 0.880544 1.0070902 0.984967 0.9857563 0.975139
1.1428276 0.9050855 1.022389 1.0777575 1.0728823 0.99855477 0.92853177 1.2241881
0.9701694 0.9688472 0.9714513 1.1624256 0.92886424 0.9251443 1.0711095 1.0813924
1.0094815 0.97273695 0.9450932 1.0453701 0.9603787 1.0505887 1.2037984 0.98616993
1.1033642 1.031588 0.8691612 0.9361383 1.1824266 0.9522715 1.0195636 1.0049345
0.9741881 0.9043445 0.9882171 0.95087075 0.98548234 0.8925075 1.1157529 0.9264375

batch_norm2.bias f4 [64]
00000000: dbc0 583e d93c 8abd aac1 eabc f01d 83bd
00000010: 57b6 3f3e ffc5 eb3c ce75 01be 606d 73bd
00000020: ea3b 573e 7f26 c7bb 0953 07bd 4ed0 8dbd
00000030: 161a 8fbd 0efc a83d d608 34bd b31e b6bd
00000040: cf53 e1bd e011 0fbe 64b5 1dbe 50c0 2ebe
00000050: 507f de3d dce1 8039 92b4 9dbd b552 02be
00000060: ad25 f93d 8b45 05bb dcf9 1ebd 3d10 ae3d
00000070: 1e45 2b3e f428 d53c 0c51 b03b f563 593e
00000080: 91b9 273c 20c3 acbc bb92 9a3c fa08 6a3e
00000090: ffd9 edbd dcbc f23b ce3e c23d 3497 de3d
000000a0: 79e9 253d 6a8a c1bd 0888 0dbe a556 48bd
000000b0: 63fb d1bd b0bd d33c 364c 533e 02d0 233d
000000c0: afe9 f73d 9d09 4f3d adc3 36be fe42 0abe
000000d0: baf7 513e 3ff1 e7bd d8a5 04bd f431 573c
000000e0: 154c 94bd 127e 0fbe 7663 63bd 77a5 103d
000000f0: 045f e8bd 537a ecbd f0a5 2c3e 26a7 d6ba
0.21167319 -0.06749887 -0.0286568 -0.064021945 0.18721901 0.028780935 -0.12642595 -0.05943048
0.21018949 -0.006077587 -0.033038173 -0.069244966 -0.069873974 0.082512006 -0.04395374 -0.08892574
-0.11002313 -0.13971663 -0.15401226 -0.17065549 0.10864127 0.0002458234 -0.07700457 -0.12726863
0.12165389 -0.002033564 -0.038812503 0.08499191 0.16725585 0.026020505 0.0053807553 0.21229537
0.010237114 -0.021089137 0.018868795 0.22854987 -0.11613845 0.0074077677 0.09484635 0.108686835
0.04050586 -0.094502285 -0.13821423 -0.048910756 -0.10253026 0.025847286 0.20634541 0.039993294
0.121051185 0.050546277 -0.17848082 -0.13502118 0.20504656 -0.11325311 -0.032384723 0.013134468
-0.07241074 -0.14012936 -0.055514775 0.03531405 -0.11346248 -0.11546769 0.16860175 -0.0016376718

batch_norm2.running_mean f4 [64]
00000000: 1e16 c0bf cacd ea3e 302a 11be b83c 8a3f
00000010: 2fa2 b9bf 0daf 6dbf e130 8e3f ce85 e1bf
00000020: f175 1bc0 63d9 9b3d a2ce 093f d260 8b3f
00000030: 18d1 90bf 09cf b0bf 3714 d6be ee45 c33f
00000040: 8f65 9b3f aa7b bf3f 9ccd 833f 9c6c c73e
00000050: 0a60 32bd 88d8 1e3f 78e5 8e3f 12d3 6c3f
00000060: 7a48 8fbf f227 d83e f8e2 abbe 2756 cebe
00000070: d67b 75bf 7dfd a6be 8487 423f 707f 06bf
00000080: 163d 61bf 7727 32bf a056 17bf 1758 cbbe
00000090: 46e4 df3e 5a78 98bf 72a0 41bf ca77 a3bf
000000a0: c54f e83e 5cd6 743f 959d aa3f 6c00 743f
000000b0: d2ad 4b3f f7ae babf 7934 34bf 264b 21bf
000000c0: 2e1c 04bf bd85 debf 58b8 c33f 0a80 553f
000000d0: 8945 1bbf 10eb 2f3e 0a25 1a3f b9f4 223d
000000e0: b57e 9f3f ddcc d13f e66b c63f d74e d0bc
000000f0: 7d22 a93f 0417 7a3f 5736 00c0 eadf bcbf
-1.500675 0.4586013 -0.1417625 1.079978 -1.450262 -0.9284523 1.1108667 -1.7618959
-2.4290736 0.076098226 0.5383092 1.0888922 -1.131381 -1.3813182 -0.41812298 1.5255716
1.2140368 1.4959614 1.0297122 0.3895005 -0.04354862 0.6204915 1.1163778 0.9250957
-1.1193993 0.42217976 -0.335716 -0.40300104 -0.95892084 -0.3261527 0.7598803 -0.52538204
-0.87983835 -0.6959147 -0.59116554 -0.39715645 0.43728846 -1.1911728 -0.75635445 -1.2770932
0.4537336 0.95639586 1.332934 0.95313144 0.79562104 -1.4584645 -0.70392567 -0.6300529
-0.516055 -1.7384564 1.5290632 0.833985 -0.6065298 0.17179513 0.6021277 0.039784167
1.2460543 1.6390644 1.5501678 -0.025428219 1.321365 0.9769137 -2.0033166 -1.4755833

batch_norm2.running_var f4 [64]
00000000: a145 5940 d8f1 0740 e0e9 3940 f5fd eb3f
00000010: 8827 8840 7d0e 953f 0330 2640 2ff9 6e40
00000020: ea85 1341 9c2d c93f de2f 0940 86de 0d40
00000030: 8102 d23f 4550 1d40 6569 1640 5bb0 5140
00000040: ebae d83f ffec 5340 403b 0b40 66d8 0f40
00000050: a0a4 1f3f f6fc 6640 cb9e f43f f7b8 2240
00000060: ef85 ea3f a36d cb3f e945 6e3f b6c6 1840
00000070: d7b0 bf3f a3cf 0440 4a4e 3040 8052 a63f
00000080: e7bf 0840 a780 e43f e567 0240 d478 813f
00000090: a5b1 c63f d82f a540 cb6f 7140 3211 5f40
000000a0: d29b 0b40 c044 a93f 6554 0540 6338 7b40
000000b0: dc75 0140 4500 0a40 3722 a43f 404e 2340
000000c0: a00b 4040 8479 5040 b3f4 1d40 7a4c 7540
000000d0: d7de d43f c82a c53f 174f 0b40 546b 1440
000000e0: 10fd e13f e7d9 4540 4647 1940 2ddb 6a3f
000000f0: 1c43 f63f 363b 0b40 56c5 ba40 063c e940
3.3948748 2.124136 2.9048996 1.8436877 4.2548256 1.1645046 2.5966804 3.733959
9.220194 1.5717044 2.1435466 2.2167068 1.6407014 2.4580243 2.3501828 3.276389
1.6928381 3.31134 2.1754913 2.247583 0.6236057 3.6091895 1.911096 2.5425394
1.8322123 1.5892833 0.93075424 2.3871284 1.4975842 2.0751731 2.7547784 1.2993927
2.1367128 1.7851762 2.0375912 1.0114999 1.5522963 5.1620903 3.7724483 3.4854245
2.1813855 1.3224106 2.083276 3.9253166 2.0228186 2.1562665 1.2822942 2.551651
3.0007095 3.2574167 2.4680603 3.8327928 1.6630505 1.5403681 2.1767023 2.3190508
1.7655354 3.0914247 2.3949752 0.91740686 1.923923 2.175489 5.836589 7.288577

query.weight f4 [64, 64]
00000000: c3ec 3a3b 7380 bfbd 8689 df3d 35d9 9bbd
00000010: b56b 8bbc 224e 43bc fd85 a73d b7bd 253a
00000020: c21b 023e f460 b13d 8789 2e3c 41c5 c93b
00000030: 2244 10be 006b d13d 6789 033e 5cf6 bfbd
00000040: 8b1d e3bd dc8a b8bd 816e 2fbe e447 bcbd
00000050: 28ba fa3c d980 fd3c d266 c93c 641d cf3d
00000060: 569b 863d 1ca8 42bc 758a c23c 2e43 b73d
00000070: f49d 9fbd 5a09 c83c 5429 edbd 1764 cebd
00000080: 8e30 f5bd 65af 04be cbed 11be e395 22bd
00000090: 2a3e 0ebe e7c0 cf3c 0aac 74bd 05c6 8d3d
000000a0: 19f1 7cbd 99b8 d4bd 22d4 043d 6b66 29be
000000b0: 5367 4d3c 5871 a93c 2c7f a33d 80bd 253e
000000c0: 0e31 0d3c ad6b de3d 91e0 e2bb 569a 91bd
000000d0: 858c b9bb f56c cabd 4c20 a0bd b9d3 76bd
000000e0: 8647 efbd b150 aebd 8182 8abc cc32 a93d
000000f0: 70e6 adbd 476a 10bb 757a b63d 1fa0 37bd
00000100: 9a83 31bd 76c3 4e3d 24cf 323d da33 643b
00000110: f5b5 863d 634d e7bd 4e14 babd c525 2f3d
00000120: 3161 613d 839f e7bd 8a5d 8b3d 9383 5bbd
00000130: 5d3b f13c cd5e 4dbd db0f 09be dcb1 87bc
00000140: 32fd e23c d62d 1f3d a560 203e 1587 f53c
00000150: 10c6 453b 92e6 f5bd 06d3 d5bd 638a dd3d
00000160: fcea c4bd 82da 0fbc 8936 a23d 3796 293d
00000170: 8b06 80bd 406b 6f3d a31f c33c 68a6 91bd
00000180: 8ddb 84bd 849e ba3d f58b 20bd c88c 8bbd
00000190: c543 f83d 9a05 83bd 1e76 033e e34c adbd
000001a0: 7d14 0bbb 3c6d d0bb 69d2 c43d 3813 7f3d
000001b0: 84e8 f33d b1e6 24bc d7c7 48bd d8b8 fd3b
000001c0: bb73 81bd 1e79 9dbd 772a a73d 008f b83d
000001d0: b91c 1ebe adff d4bc 855d 70bd b07e a0bb
000001e0: df73 e7bd dbad 3a3d da3f 6dbd 29d4 953b
000001f0: 79b3 1e3d d6db d83d 1599 3c3d d015 a4bd
00000200: 2aa5 0abe b27c 153e 5eeb 23bd bead 3e3d
00000210: aa72 5dbc 4a40 cbbd f04e b6bd 349a 74bd
00000220: b911 0abd 0bf4 953d 9f85 c2bd 84c0 cebd
00000230: 432f e13d 2a35 513d 04df 94bc 30e2 a4bc
00000240: a240 01be 700a b03d c6f4 46be b7d5 16bd
00000250: b9e7 b63c 0b38 f0bd 68d0 93bd e37d cd3c
00000260: f918 ee3d fa30 c8bd bde3 14bd d57e cf3c
00000270: 7b70 34bc facd cfbd 23f3 84bd 0a7b 39bc
00000280: 7d86 6ebd be39 08be 5758 30be 5cfe 063d
00000290: 5ed2 51bc d171 723d 64d7 47be e554 1ebe
000002a0: 6e9a 15be 0526 b4bd 19f1 81bc 73d3 973c
000002b0: c5d8 21ba 8cc1 bfbd 8c85 46bb aa21 b2bd
000002c0: fdec e1bd 7a4e 013e 348a dfbd 7725 bebd
000002d0: ced5 273d 43e7 be3d bcf8 673d 7c31 49bd
000002e0: 795b bcbc 13b4 e1bd 7bfc 07be 3864 8f3c
000002f0: 25ad 373d 7ce2 bfbd 4206 03be 42c6 843d
00000300: 9b34 2ebe 8d0f e03d 2bc8 b5bd 3a27 493d
00000310: 7413 16be 39ac 243c fd02 0a3e 60ab aabd
00000320: ee9d 21be 585d 0c3d 1f8a 3fbe b2de 9f3d
00000330: 0629 a5bd 4ba3 b23c a157 13be 76ab 96bd
00000340: 2d2c 02bd 7875 93bd 3136 1c3c e46c 363d
00000350: 89f3 2b3e 2152 303d 4046 0cbe 244a 8a3d
00000360: ac9e d4bd 62f2 10be 4be1 0fbd ad0b 6fbe
00000370: e3e2 30be 7b49 81be fe61 a4be fe70 453c
00000380: eea0 a8be e878 a0be 2089 40be 5d8b ad3d
00000390: 67fd 14bc 4b11 79bd 76c4 65be f099 8bbe
000003a0: 7fd7 87be 87be 7839 0d69 623c 481f 023d
000003b0: ac30 dd3d 459f ebbb 87d8 993d 22a7 0ebd
000003c0: ae88 5cbe f856 94bd bde6 d8bd 809f a43b
000003d0: 8bfb bb3c 85d8 bfbd 766b 4abb 756e 51be
000003e0: 041c 3c3e 2fbd 11be 0a57 7a3d 61d5 65bd
000003f0: d7c5 e2bb a4c4 903d 1604 54be d112 28bd
0.0028522469 -0.093506716 0.109149024 -0.07609788 -0.017019132 -0.011920484 0.08179853 0.000632252
0.12705901 0.086610705 0.010652906 0.0061575477 -0.1408849 0.10225487 0.12845384 -0.09373161
-0.11089619 -0.0901086 -0.17131998 -0.091933995 0.030606344 0.030945228 0.024585161 0.10113028
0.06572597 -0.011880901 0.023747662 0.089483604 -0.07793799 0.024418522 -0.11580148 -0.100776844
-0.11972152 -0.12957533 -0.14250867 -0.039693724 -0.13890901 0.025360538 -0.05973438 0.06922535
-0.061753366 -0.10386772 0.032428868 -0.16542976 0.012536841 0.02068393 0.079832405 0.1618557
0.008617653 0.10860381 -0.006923743 -0.07109515 -0.005662503 -0.09884063 -0.0781866 -0.06026051
-0.11683564 -0.085114844 -0.016907932 0.08261642 -0.08491218 -0.0022036002 0.089100756 -0.044830438
-0.043338396 0.050479375 0.043654576 0.0034820945 0.06577674 -0.11294057 -0.09085904 0.04276063
0.05502433 -0.11309721 0.068049505 -0.053592276 0.029447252 -0.050139237 -0.13384955 -0.016564302
0.027708624 0.038862072 0.15661867 0.029971639 0.003017787 -0.120068684 -0.1044064 0.10817411
-0.09615132 -0.008780124 0.07920558 0.04140302 -0.06251248 0.05845189 0.023818797 -0.071118176
-0.064871885 0.09112266 -0.039195973 -0.06813961 0.12122301 -0.06397553 0.12838027 -0.084619306
-0.0021221929 -0.006360678 0.09610445 0.062274188 0.11909583 -0.010064767 -0.049018707 0.0077429824
-0.06320902 -0.07689117 0.081623964 0.0901165 -0.15440644 -0.026000822 -0.058682937 -0.004897915
-0.113013975 0.045575958 -0.05792222 0.0045724106 0.038745377 0.105888054 0.046044428 -0.08011973
-0.13539568 0.14598349 -0.040019386 0.046552412 -0.013516108 -0.099243715 -0.08901775 -0.059717372
-0.033708308 0.07321938 -0.094981425 -0.10095313 0.109953426 0.05107609 -0.018172748 -0.020127386
-0.12622312 0.08595741 -0.19429311 -0.036824908 0.02232729 -0.11729439 -0.07217485 0.025084442
0.11625857 -0.097749665 -0.03635 0.025329033 -0.011013146 -0.10146709 -0.06491687 -0.011320839
-0.058233727 -0.13303277 -0.17221199 0.03295742 -0.012806503 0.059190575 -0.19515759 -0.15462072
-0.14609692 -0.08796314 -0.015862035 0.018533444 -0.0006173964 -0.09363088 -0.0030292002 -0.08697827
-0.1103153 0.12627593 -0.10915032 -0.092844896 0.040975384 0.093214534 0.056633696 -0.049119458
-0.022992836 -0.110206746 -0.13279907 0.017503843 0.044842858 -0.0936937 -0.12795356 0.06483127
-0.17012255 0.10940466 -0.0887607 0.049109675 -0.14655858 0.010050827 0.13477702 -0.083334684
-0.15782902 0.034268707 -0.18705033 0.07806148 -0.08064465 0.02180638 -0.14388897 -0.07356922
-0.03178041 -0.0720014 0.009534405 0.04453744 0.1679212 0.043047074 -0.13698673 0.067524225
-0.10381827 -0.14154962 -0.035126965 -0.23344298 -0.1727405 -0.25251374 -0.32106012 0.012050865
-0.3293528 -0.31342244 -0.18802309 0.08473847 -0.009093619 -0.060807507 -0.22438225 -0.27265882
-0.26531598 0.000237221 0.013818991 0.031768113 0.10800299 -0.0071906173 0.075120024 -0.03482736
-0.21536514 -0.072431505 -0.10590885 0.0050238967 0.022947093 -0.0936747 -0.0030886806 -0.20452292
0.18370062 -0.14232324 0.061118163 -0.056111697 -0.006920557 0.07068756 -0.20704684 -0.04103357

query.bias f4 [64]
00000000: 71ed 75bb a03d f0bb 7351 f23d ffb1 b13c
00000010: 5acd 4ebd 81dd a9bc eddf 833d f08f 493d
00000020: 4472 2fbd 4fb3 bc3c 7a99 9ebc 05a7 873b
00000030: 1ab0 10bd e742 183e c994 5f3d 222b a33d
00000040: a794 103e 5599 8e3c 5b7a dc3d 0d6f b23d
00000050: 605d 8fbc 99d5 b73c 0bb9 bb3d f1b2 b1bd
00000060: c9fb 463d 9698 673a e792 80bd b60d bd3c
00000070: a495 34bd 4b5a 1cbe 92ca f9bd 6602 cd3b
00000080: 57ce b93d 3b74 543d ae7d 8a3d f4af f63d
00000090: 384f 953d e7cd 613d 16cb c93d a9a7 ccbd
000000a0: 53bb 913d 5178 77bd 3087 a7bd 2934 ac3c
000000b0: 2b66 99bd 951b 8f3d 7d9d f8bc e9d7 8f3d
000000c0: 2e7c a23d c322 d8bd 01e3 d43b 9b3d 9b3d
000000d0: 7efd b3bc c7f2 38bd 39ec dfbd d87c 5e3b
000000e0: 20d4 5c3d 58bc 2e3d db46 c73d 82a9 49bd
000000f0: e5da 9abd 6f65 a93d 9885 22be fb92 043d
-0.003752556 -0.007331565 0.118319415 0.02169132 -0.050488807 -0.020735504 0.06439195 0.049209535
-0.04283358 0.02303472 -0.019360293 0.0041397833 -0.035324194 0.14869271 0.054585252 0.07967211
0.14119206 0.017407099 0.10765525 0.087125875 -0.01750058 0.022440718 0.091661535 -0.086767085
0.048579965 0.0008834688 -0.062780194 0.023077827 -0.04408802 -0.15268819 -0.1219684 0.0062563894
0.09072559 0.05186866 0.06762253 0.12045279 0.072905004 0.055128004 0.09853189 -0.09992916
0.071158074 -0.060417477 -0.08180082 0.021020966 -0.0749019 0.06987683 -0.030348534 0.070236035
0.07933842 -0.10553505 0.0064967875 0.0758011 -0.02197146 -0.045153406 -0.10933728 0.0033948924
0.053913236 0.042660087 0.097303115 -0.04923392 -0.07561282 0.082713 -0.15871274 0.032366734

key.weight f4 [64, 64]
00000000: 2ab0 f0bc 5f88 e2bc 97f6 bbbd 5320 82bc
00000010: f304 92bd 85c5 db3d 2663 9b3c a445 ae3d
00000020: 82a5 15be ace7 22be ad72 a5bd 43df 3ebd
00000030: 8a48 d13d 82b2 2bbc a766 d93d 3282 bc3b
00000040: a4f0 3bbc 3556 b4bd 9376 14bc 07dc 89bd
00000050: c65b 913d 5cf8 d2bc ddab 403d 1579 0cbd
00000060: cce5 863d da64 8d3d 2c68 e73b 0843 ff3c
00000070: eadc bebd bdf7 eabc 16cf e83d dcfc 563d
00000080: 39c7 183c a5e8 753c 2ef2 883d 8612 f73d
00000090: 6a79 373d 07d3 8bbc ab99 11be 337e 063e
000000a0: 8c76 2a3e ba57 e9bd 5492 233d 9529 e63c
000000b0: 0b12 7f3d 3970 5abd c476 e4bc 300c 49bd
000000c0: 032a a43d 66dd 613c 59b6 30be 45c4 553d
000000d0: 08ad 10be fcd8 88bd 18b6 c1bd be2b 03bd
000000e0: 5ba6 ccbd ca8f b33d 217c 27be 7345 2d3d
000000f0: 4c1f 24be 754b 013d 47a6 193d 7f37 e8bd
00000100: 1ccf 333e f767 493d 1575 6f3d a1a5 283d
00000110: 02d8 333d d2bd 143c 431e 3d3c 0d9a 1e3e
00000120: 90cd 003e 6ad6 8fbc 1d5e 29bc aa69 2b3d
00000130: 84b4 50bc 601e 02be 7984 143d 0279 b5bd
00000140: 3aa0 cd3d fd5b 2cbe 71b2 c8bc 3e72 ac3d
00000150: ad35 59be 0619 a3bb 1de7 903b cef2 b2bd
00000160: 1b40 4fbd d6de 5a3d 8cc3 a5bc 36a3 6dbc
00000170: 74e6 053e cd06 acbd 957b 87bd 1f5c 17bd
00000180: d604 d4bd fab7 113d 296c 99bd 24cd f53c
00000190: 0c4a bebc 6558 7cbc 7347 6c3d 0853 f0bb
000001a0: bab3 54bb 2b4a ae3d f960 1fbe cb78 ffbc
000001b0: af41 6fbd 09e4 103e 3ed7 0bbe 8682 11be
000001c0: 3a94 f73c e383 a73d e24e 99bb a2e4 9bbd
000001d0: e862 1b3d f7df 163c cbd5 df3d 2371 173e
000001e0: 00db 1abe 0c3e d7bc a7e8 af3d 2d53 e3bd
000001f0: cd84 64bb b1c2 d83c 00cd 9f3d de16 a13c
00000200: 9ef8 39be 904f 97bd 353d b9bd a252 c0bc
00000210: a1bd a63d 91d0 e0bc b3a5 e0bd bf06 a13c
00000220: c1d1 9f3d f5ff 65be f5e0 05be 9a9f a63c
00000230: c2e4 393e aef9 103e 402b 7b3e a456 b2bd
00000240: 3f4d 0c3d 2590 17bd d959 833d af31 bebc
00000250: daf3 0ebd 4c0e 3abc 2282 07bd 2c0c c8bd
00000260: b411 8e3e 6f48 39bc 45d6 0d3e 5e5b c6bb
00000270: 516e 263d b94c d2bd b585 2fbd 323a 49bd
00000280: fd31 e7bc c116 99bd a7a1 8d3d 7e06 503e
00000290: 8d79 76bd 0e02 ec3c 4ee7 67be ffd5 113d
000002a0: 0171 a7bd d96d bcbc 7f41 7dbd 3a6a 583e
000002b0: 1a85 dabc 0f11 133e e48d a03d 0bbc 1fbe
000002c0: 8aee d2bd 36e4 193e edb0 02be f38b cc3b
000002d0: a89e 4d3d 41a9 3a3d c986 763d ef09 e5bc
000002e0: 6d54 983d 04e2 ae3c 8c4d 90bd 7c03 46bd
000002f0: 069b 0cbe 49cc aabd 6d8f b8bd 2f97 03be
00000300: 8da2 abbd 1ada babd d4a9 78be 1134 8d3d
00000310: 3b3e a6bc d138 0e3e 8a5b 4abd ac8c 313e
00000320: 7065 bc3b b602 34be e641 7ebe 723a 90bd
00000330: 0a72 1a3e 97d6 503e 74f9 0c3e 40c0 4b3d
00000340: d3cd 54be 4a4f 8bbd 3676 a83b 2b8b a7bc
00000350: 004b dcbd 175f 3c3e c923 9cbd a1ea 1f3d
00000360: 271e 233e 2a39 543d 3c88 343e 2a22 88bd
00000370: 36f2 0c3e 54b4 dabd a982 c6bd 724f 65bc
00000380: 0f1c f7bd e2c3 e9bd 59f1 1dbe f799 ef3d
00000390: 4a07 f03d 43f5 d53c fa2e 47be 98f7 04be
000003a0: 9b7a 2e3c 3445 8bbd 967d 8ebb 0698 643e
000003b0: 5704 8e3d 9991 883e 47fb 573b 3560 41bd
000003c0: b6a1 75be f3f6 3c3e 47b2 d7bd 6be3 e43c
000003d0: 2e2a 7b3d d6e2 83bd 2024 123e 3933 86be
000003e0: e815 2b3d 3ca2 01be 855f 123d 283e 913c
000003f0: 147b 1dbe 6eff 0fbe 684b bbbc 923a d8bd
-0.029380877 -0.027652917 -0.09177893 -0.015884554 -0.0712985 0.10731033 0.018968176 0.08509377
-0.14613917 -0.15908688 -0.08078513 -0.046599638 0.10218914 -0.010479571 0.106152825 0.005752825
-0.011470947 -0.08805505 -0.009061473 -0.0673142 0.070975825 -0.025753193 0.0470389 -0.03429516
0.06586799 0.069040015 0.007061979 0.031159893 -0.0931948 -0.028682584 0.113676235 0.05248724
0.009324842 0.01500908 0.06686817 0.1206408 0.044793524 -0.0170684 -0.14218776 0.13134079
0.16646785 -0.11393686 0.03993447 0.028096 0.062273066 -0.05332968 -0.027888663 -0.04908389
0.080158256 0.013785696 -0.1725706 0.05218913 -0.14128506 -0.066820115 -0.0945856 -0.032024138
-0.09992667 0.0876766 -0.16355945 0.04230256 -0.16027564 0.031566102 0.03751209 -0.1133871
0.17559475 0.049171414 0.058461268 0.04117358 0.043907173 0.00907846 0.0115428595 0.15488453
0.12578416 -0.017558295 -0.01033738 0.041848816 -0.012738351 -0.127069 0.03625915 -0.08860971
0.100403264 -0.16831966 -0.02449915 0.084202275 -0.21211882 -0.0049773483 0.004422082 -0.087377176
-0.050598245 0.05343517 -0.020234846 -0.014504245 0.13076192 -0.08399735 -0.06615368 -0.036953088
-0.10352485 0.035575844 -0.07491333 0.030005045 -0.023228668 -0.015401934 0.057685327 -0.007334117
-0.0032455758 0.0851024 -0.15564336 -0.031185528 -0.05841225 0.14149489 -0.13656327 -0.14209947
0.030222047 0.08179452 -0.004678593 -0.076119676 0.03793612 0.009208671 0.1092945 0.14789252
-0.15122604 -0.026274703 0.08589297 -0.11099849 -0.0034869194 0.026460024 0.078027725 0.019664224
-0.18161246 -0.07388222 -0.090448774 -0.023476902 0.081416376 -0.027443202 -0.109691046 0.019656537
0.07803679 -0.22460921 -0.13074096 0.020339776 0.1815367 0.14157745 0.24528217 -0.08707932
0.034253355 -0.0370027 0.064136215 -0.02321705 -0.034900524 -0.011355948 -0.03308309 -0.097679466
0.2774788 -0.011308773 0.13851269 -0.0060533723 0.04063255 -0.1026854 -0.042852122 -0.049127765
-0.028222078 -0.07475043 0.06915598 0.20314977 -0.060174514 0.028809574 -0.2264683 0.035604473
-0.08175851 -0.023001598 -0.06183004 0.21134272 -0.026674796 0.14361976 0.078395635 -0.15599076
-0.10299404 0.15028462 -0.12762804 0.006242269 0.050200135 0.04557157 0.060187135 -0.027958838
0.07437978 0.021348007 -0.07046041 -0.048343167 -0.13731012 -0.083397456 -0.09011731 -0.1285064
-0.083806135 -0.09123631 -0.24283534 0.068946965 -0.020293346 0.13888861 -0.049403705 0.17338818
0.005749397 -0.17579159 -0.24829826 -0.070423976 0.15082565 0.2039436 0.13767034 0.04974389
-0.2078164 -0.068022326 0.005141045 -0.020452103 -0.107564926 0.18395649 -0.07624013 0.03904212
0.15929471 0.05181233 0.17630094 -0.06647141 0.13764271 -0.10678926 -0.0969289 -0.013995992
-0.120658986 -0.11414315 -0.15424098 0.11699288 0.1172014 0.026117926 -0.19451514 -0.12985075
0.010649349 -0.06800309 -0.004348467 0.22323617 0.069344215 0.26673582 0.003295617 -0.04721089
-0.23987469 0.18453579 -0.105320506 0.027940473 0.061319523 -0.0643975 0.14271593 -0.26210955
0.04176894 -0.12659544 0.035735626 0.017729834 -0.15378982 -0.14062282 -0.022863105 -0.105580464

key.bias f4 [64]
00000000: 9487 063d 6a09 d0bd 7a9d eabd 0c87 fb3c
00000010: 77e1 e53d 71a7 b5bd 5d97 b53c b8ee be3d
00000020: f564 8fbd 41fd f13c 0f97 8a3c b90a c4bd
00000030: aff7 023d 463b 603c 2f5e c2bd 6c6e 823d
00000040: 5216 41bd b32b 01be cfc6 7c3b 74a2 8a3d
00000050: 3ce7 9b3d 1b66 bcbd 719a 58bd 5064 bd3d
00000060: cd62 44bd 4c88 c7bd 56fd 21bd b903 93bc
00000070: 9254 9d3d d77d a73d eb14 bfbd 89ac debb
00000080: f1e4 f53d 6e24 eb3d 80e5 e5bd 71b3 603c
00000090: ebb9 d03d 0353 8e3d ffcf bcbc 2019 ddbd
000000a0: e0df 8dbd 4a80 a7bd 67f6 863d cbb1 b93d
000000b0: ec1f cebd 4055 a53c 2d65 68bd a413 953d
000000c0: 350d 3e3c b17b 8abd 2294 56bd 7d1a 863c
000000d0: d143 5cbd 5898 fa3d 5336 823d 74d2 933d
000000e0: 296a 0d3d 02ab 8d3c 3267 863d 0af6 b9bd
000000f0: ef05 193d 00a4 86bd 4d95 83bd 45fd 37bc
0.03284414 -0.101580456 -0.114558175 0.030704044 0.11224645 -0.088698275 0.022166902 0.09322876
-0.07001678 0.029539706 0.016917733 -0.09572358 0.03197449 0.013686007 -0.0949062 0.063687176
-0.047140427 -0.12614326 0.0038570648 0.06769267 0.07612464 -0.091991626 -0.05288166 0.09247649
-0.047945786 -0.097427934 -0.03954824 -0.017946111 0.07682146 0.08178299 -0.09330162 -0.00679547
0.12006558 0.11481558 -0.11225414 0.013714657 0.10191711 0.06949427 -0.023048399 -0.10795808
-0.069274664 -0.08178766 0.06589966 0.090671144 -0.10064682 0.020182252 -0.056737114 0.07279137
0.0115998285 -0.067618735 -0.052387364 0.016370052 -0.053775612 0.122360885 0.06358018 0.07217875
0.03452507 0.017293457 0.06562652 -0.09080131 0.037359174 -0.06574249 -0.06424961 -0.011229818

value.weight f4 [64, 64]
00000000: 3b1d 33bd ce0c 2c3e 27b8 ad3d 974c 2bbe
00000010: a2d8 8bbd 816a 503b c931 233e ce17 debd
00000020: 8670 913d 0856 abba 5581 1b3e 90c4 88bd
00000030: b892 92bd bffe 25be a49f 14bd 2507 1cbd
00000040: 685f c1bc ce05 cdbc 1698 e7bd 113e 193d
00000050: 4fc0 8ebd ccaa 33be 0bfa b93d 6087 fa3d
00000060: 42fa b33d 40b9 febd 6ff0 953d 22cb dd3d
00000070: 1262 223e 1cde 72bd f051 7fbd b527 17be
00000080: f2d6 9ebd ccb6 94bd c8a0 acbd 82bd 2dbe
00000090: 0cf6 5ebd 4855 833d 6551 dc3d 54f8 493e
000000a0: 967b acba 6f9f 8a3d e924 f3bc 700c 28bd
000000b0: 86e4 45be 4f5e 1fbe 0f48 3abe 5e03 753d
000000c0: d119 613e c539 f23c 8805 843d 5ce2 a13d
000000d0: 1bad 90be 4467 c83d 9030 3cbe d18e 353e
000000e0: 90dd 2c3d a330 063e 91ac 4bbd c4bc 453d
000000f0: 0531 023e 898c 9abc 8b6b e33c 22c0 4bbe
00000100: 2ae9 133e fdb3 97bd 11eb 43bd a4b7 593d
00000110: b3ef 463e ec9e 343d ff6e faba 62b0 73bd
00000120: 9245 f93d b18c 09bd 1d40 62ba a797 13be
00000130: 5dcc 373d e813 40bd 6ca2 e53c e20b a9bd
00000140: 08f3 05be 2a03 8d3d 0f8a a03d 6754 fabb
00000150: b4c1 e7bd 02b9 1cbd d714 d5bd 88fb 9ebd
00000160: bf5b 593e 47ec 5abd e287 2b3e 7541 073e
00000170: 33b6 9e3c 3c75 2a3d 0f13 c83d 86cd b4bd
00000180: 1b48 21bd 2e46 5ebd a29a 303c 5cd8 e0bd
00000190: ac8d 683d 8d4d 24be fa7e 953d 3fd6 87bc
000001a0: 4643 1dbd ea88 bbbd ff09 063d 5d28 d43d
000001b0: 9ccd 3c3d 2297 163e 2b83 5fbd 156f 063e
000001c0: 885b 073d b47e 993d 4589 a4bd a72e 373d
000001d0: 967b 633d b2d3 f63d 297c ee3c 1acb e13d
000001e0: 4d07 dbbd a5b9 61bc 5911 3bbe 25b9 863d
000001f0: 93df e3bd 3698 96bd 85bd 1a3e 787c b53d
00000200: b369 be3c 9bf6 093d f8d0 d53c 98cd e4bc
00000210: c647 033e 7a9f 1cbe c56b 003e 02fd 7e3d
00000220: 3405 7d3e cf58 903d 1da2 bcbc 9862 fcbd
00000230: 7eb6 7cbd 0e62 0ebe 8167 57bd c02a 15be
00000240: d8a6 51bd 9b34 50bd f7fb b53c c0f5 a9bd
00000250: c7f3 c5bd d14f edbc eb9c d1bd 3977 0b3e
00000260: 58c4 d8bb 7164 e2bc 33d8 38bd b7f2 6f3e
00000270: 1333 033e f0cc 96bc 2dcb aabc 2a3f 7bbe
00000280: ca1d bfbd a883 4c3d c9b4 17bd 2756 d8bd
00000290: d9fa 533a 360f 1d3c 0f2e 403e 887d 4e3e
000002a0: 2726 90bd 3c7d a8bd 138b 963c 0b70 243c
000002b0: 7cac 36be 8b91 efbd 2bc4 32be b23b 233e
000002c0: 05c6 723e d0d2 b8bd cc2b 0dbd 2ce0 f83d
000002d0: bfa5 b8bd 09f8 253e 4f88 debd f5db ea3d
000002e0: 8fd5 2d3c 2a1e 85bd b6fb 6dbd e414 6c3d
000002f0: 5135 a3bd 32d3 973a 5d02 253e 9876 d5bd
00000300: c230 693d 70e3 043e 9f0c 263d e1a5 acbd
00000310: 0bc2 de3d ed09 27bd 1fe7 173e ce41 123d
00000320: caf1 353e 7c5a 96bd 78ef 213e 676a 2abd
00000330: 8c69 1ebe 9271 3fbe 1303 bdbd 0161 b9bd
00000340: c4fc 10be a42e cfbd 1353 f5bd 20f8 25be
00000350: 9cfb 5cbd 6660 dfbd 7e1b 81bd ed3a 0a3e
00000360: 2ae3 2e3e 43a2 5ebd 5cee 4abd c32a 753e
00000370: 68e0 a03c 3d8e 6fbd 1477 24bd 2dcc b4be
00000380: b00e 1c3e a50f d33d c67f 66bd 7ed3 9ebe
00000390: fe57 cfbd fcb0 c2bd 22b9 fe3d 3ec3 473e
000003a0: 3d1c c83d 8443 42bc 4d0d 973b ae64 2a3d
000003b0: 0c5e 293c e252 c7bd cc5b d3bd 57f1 3d3e
000003c0: 42ba 853e ba1e 8b3c 3552 d2bd 3fdd 0e3e
000003d0: 4978 83be 3098 e1b9 1b43 4bbe ddac 923c
000003e0: 0390 48bd 91dd b83d 6c26 3fbe b325 6b3d
000003f0: f9f0 00bd 1b8a abbd 440a 553e 1b9f 7abd
-0.04372905 0.1680176 0.0848239 -0.16728435 -0.06828429 0.0031801763 0.1593696 -0.10844384
0.0710154 -0.0013071904 0.15186055 -0.06678116 -0.07156891 -0.16210459 -0.036285058 -0.03809275
-0.023605064 -0.025027182 -0.11308305 0.037412707 -0.06970274 -0.17545623 0.09080895 0.12232852
0.08787967 -0.124376774 0.0732125 0.1082976 0.15857723 -0.05929385 -0.062334 -0.14761241
-0.07755841 -0.07261428 -0.08429104 -0.16966823 -0.054433867 0.064127505 0.10757712 0.19723636
-0.001315939 0.06768691 -0.029680686 -0.041027486 -0.19325456 -0.1556332 -0.1819155 0.059817664
0.21982504 0.029568562 0.064463675 0.07904503 -0.2825707 0.09785321 -0.183779 0.17730261
0.042203486 0.13104491 -0.04972512 0.048275724 0.12714012 -0.01886584 0.027761241 -0.19897512
0.14444414 -0.07407377 -0.0478316 0.05315365 0.19427375 0.044096872 -0.0019106566 -0.059494384
0.121714726 -0.03358144 -0.00086307694 -0.1441332 0.04487263 -0.046893984 0.02803155 -0.082542196
-0.1308099 0.06885369 0.078388326 -0.007639456 -0.11316243 -0.038262375 -0.104043655 -0.077628195
0.21226405 -0.053447988 0.16751054 0.13208564 0.019373989 0.04161571 0.0976926 -0.08828263
-0.039375406 -0.054266147 0.010779055 -0.10978767 0.056775734 -0.16045208 0.072996095 -0.016581653
-0.038394235 -0.09156974 0.032724377 0.10359261 0.046094522 0.1470609 -0.05456845 0.13128312
0.033046275 0.0749487 -0.080339946 0.044722226 0.055537783 0.120520964 0.029111939 0.11025067
-0.10694752 -0.013777171 -0.18268336 0.06578282 -0.11126628 -0.07353251 0.15111358 0.08861631
0.02324376 0.033682447 0.02610062 -0.027930066 0.12820348 -0.1529521 0.12541111 0.062253006
0.24709016 0.07048189 -0.02302652 -0.12323493 -0.061697476 -0.13904592 -0.052588943 -0.14567089
-0.051184505 -0.05083142 0.022214873 -0.08298826 -0.096656375 -0.028968723 -0.10235008 0.13619699
-0.006615203 -0.027635785 -0.04512806 0.23432432 0.12812452 -0.018408269 -0.020848835 -0.24535814
-0.09331854 0.049930245 -0.037037645 -0.10563307 0.00080863904 0.009586146 0.1876757 0.20165074
-0.07038527 -0.082270116 0.018376863 0.010036479 -0.17839235 -0.11697682 -0.17457645 0.1594074
0.23708351 -0.09024584 -0.034465596 0.121521324 -0.090159886 0.16207899 -0.108658426 0.11467735
0.010609998 -0.06499894 -0.05810138 0.05763711 -0.07969154 0.0011583327 0.16114183 -0.104230106
0.056931265 0.12977386 0.04053938 -0.084300764 0.108768545 -0.04078095 0.1483426 0.035707287
0.17768016 -0.07341477 0.15814006 -0.04160538 -0.1546995 -0.18695667 -0.09229102 -0.09051705
-0.14158922 -0.10116318 -0.11978736 -0.16207933 -0.05395089 -0.109070584 -0.06304072 0.13499041
0.17078844 -0.054353964 -0.049543723 0.23942094 0.019638255 -0.05848526 -0.040152624 -0.35312024
0.15239978 0.10305718 -0.056274198 -0.3102073 -0.10124205 -0.09506413 0.12437655 0.19508073
0.09771011 -0.011856917 0.00460974 0.041599922 0.010337364 -0.097326055 -0.10320243 0.18549095
0.26118666 0.016982425 -0.10269586 0.13951586 -0.25677708 -0.00043028733 -0.19849817 0.017904693
-0.048965465 0.090266354 -0.18667 0.057409 -0.03147981 -0.08375951 0.20804697 -0.06118689

value.bias f4 [64]
00000000: 8b73 05be 0978 ad3d b0d1 b53d b1ea 123e
00000010: 0ee3 debd 09e0 79bd 07e3 18be 08de c33d
00000020: d6b0 103e 4386 afbc e234 67bc f885 093e
00000030: fb85 aebd 3266 d9bd fb7a 153e aeac b5bd
00000040: c706 53be efc8 503d 9aaf febd 750d 04bc
00000050: 4809 95bd fb54 21be 8307 b83d 8fdc 033c
00000060: 06ee 943d 57c1 15bd 724b 673e b568 793d
00000070: 9ccd 08bd 1709 a23d 4af2 e1bc aef7 62be
00000080: 73f6 f63d 1717 783e d829 973d dafa 9ebd
00000090: e736 ab3d e0fc 333c bf53 643e a675 b83d
000000a0: d9d9 073c 75e2 503e e368 e63c a83a f6bd
000000b0: dc8e 9a3d ccaf 24be 4213 e43c 33a4 f33d
000000c0: 22ae 153e c647 4f3d 5266 55bd ea75 103d
000000d0: 0dee 4e3d 9b1c 5b3c 6078 fabd 86f4 5f3d
000000e0: 06dd 6bbe 1acb 3f3e 8508 a33d 3c63 b73d
000000f0: 13b1 80be 7fa8 183d 0c8b dd3d f13a 8fbd
-0.13032357 0.084701605 0.08877885 0.1434734 -0.10883151 -0.061004672 -0.14930354 0.095638335
0.14129958 -0.021426326 -0.014111729 0.13430011 -0.085216485 -0.10615195 0.14597695 -0.08870827
-0.20608054 0.050972875 -0.12435837 -0.008059849 -0.07277161 -0.15755074 0.08985808 0.008048191
0.07271962 -0.036561336 0.22587374 0.060890872 -0.03339921 0.0791189 -0.027581353 -0.22164795
0.12058725 0.24227558 0.07381028 -0.0776269 0.08360081 0.010985583 0.22297572 0.09006815
0.008291685 0.20398887 0.028126186 -0.120229065 0.075467795 -0.16082686 0.027841214 0.11896553
0.14617208 0.050605558 -0.052099533 0.0352687 0.05051999 0.013373519 -0.12229991 0.054676555
-0.23033533 0.18729821 0.07960609 0.08954474 -0.25135097 0.037270065 0.10817537 -0.06993664
