Machine_Learning/model_state/LSTM.pth (torch, 234260 bytes, 10 tensors)

lstm.weight_ih_l0 f4 [256, 30]
00000000: e1b1 fcbc 44b9 b9bc 5260 553c deef f13b
00000010: 9e49 e53d 0d8e 243d 4f76 f1bd 5daa bf3c
00000020: 09ab f33c 6cdf 17be ced3 233d db2c 13be
00000030: 5523 9fbd 4619 f2bd 5944 d73c ee73 f2bd
00000040: 1a5a 68bd b55c b2bd b90a 633d cc3f 003e
00000050: c5e8 403e fc2a 3cbd 2954 c53d 46cb dc3d
00000060: eb68 6a3d 88d3 aa3d f4fb 023e 7c45 3e3c
00000070: f059 213b ee12 69bd 0768 d03c d992 ebbd
00000080: bad5 933d e603 58bd 630f 7b3b 2df2 8d3d
00000090: 076b 843c 62df c13c a0d1 863d 03bc c73d
000000a0: 5c9b 0f3e 1d3e 0bbd a8f1 82bd d85f 983d
000000b0: 789e bbbd 0622 a53c 0772 133d b0d5 e4bd
000000c0: 4864 3abe c45f ecbd c0be f5bd cf97 9bbc
000000d0: 1c87 37be 9d21 223c 011a abbd bbd2 2cbe
000000e0: 6c5f 4ebd 6077 8c3d 650f a23d 8260 8abd
000000f0: 9e73 57bc ba09 a03d 2d6c 5bbd 56ec e93d
00000100: 041c 693d 962c eebd 249b eb3d 38fc 0c3e
00000110: 98eb dbbd 7318 573d 074a 083d f98e b53d
00000120: 408f 0bbd b2e0 1dbd 6c4a 17be 34da 92bd
00000130: 765a 9d3d 14a5 a8bc 8ae7 67bd b108 debc
00000140: 6deb 1c3e 8142 a9bd 35db 06bd ee5c e8bc
00000150: 4aa6 303e 49f2 6cbd c32e da3d c274 a83d
00000160: 451a 153e e107 a5bd 004c 0abc 34be 9ebc
00000170: af6e 1bbd 5a13 0dbe a834 d3bc 932c 103d
00000180: 9275 6d3d de2e 2dbe e303 11bd 4660 92bd
00000190: 0f1f 9bbc 0a1d df3d dc80 29be a0ec c3bd
000001a0: c664 fd3b 7743 c1bd aeeb 673d f734 803d
000001b0: 3657 2f3e 9f09 32bd c4ff 01be bc2e 223c
000001c0: 99ca 6f3d 6b24 06be ff94 0cbe a4f0 9bbd
000001d0: f2be e5bb 79ea 4abd 94de 173d 6551 e03b
000001e0: ec9b 843c dcb2 d53d c821 0f3d 3917 953d
000001f0: 724c 0abe e83a 2ebe ecb5 2b3c e42a aebd
00000200: a630 c8bc 70fd a33d 00f3 9e3d 1a99 233e
00000210: 8fe8 9e3b 0fbc c1bd 7819 0c3e 5821 6f3d
00000220: 0c9e 09be 5643 3f3c f7ec e7bd 47f5 b0bc
00000230: 16d7 b0bc d5da 133d 4304 3dbd c30c 8f3c
00000240: a105 713d 196e 8ebd 2108 2a3d 5c30 c2bc
00000250: fdd9 893c 20d5 623c 78b1 5abd 30af 0dbe
00000260: a943 3bbc b0d9 f6b8 9a4c c23d 25bc b1bc
00000270: 5214 d93d cd45 a43d 2a32 64bc f262 343e
00000280: a7ac afbc 2b61 ac3d 56b7 493e a68e cb3d
00000290: 713f d33d 804c 9a3d 1e92 51bd 7969 07bd
000002a0: 7595 903d 1f1a 1ebd 3cae c63b 1d40 903a
000002b0: 8ac1 323c f0ee 76bb 8cf4 efbd 8f09 433d
000002c0: 9331 2c3d a21d 27be 846f aabd 5b32 6dbd
000002d0: 603b 34bb 0d53 a9bc e571 96bd 1397 9b3d
000002e0: 5bf9 bb3d c1e5 683d 5cfe 913b 5f05 b6bc
000002f0: fbbb 6b3c 62a3 9a3d 1997 f33c 34d1 23bd
00000300: b01f 153e 491a 693b fb05 6bbd 1c77 4dbe
00000310: 0b8f b43c 506b debd a7a6 a6bd 6746 44bc
00000320: 07dd 0dbe 6602 30be 87ff 24bd de58 36be
00000330: ea6a 51bd ef90 b6bc 7d2f 8d3d c155 e1bd
00000340: fb99 e93d 86af 4dbc cb45 583d cd51 acbd
00000350: 7824 a0bd 7019 2dbe fc8c 8cbd ca98 17bd
00000360: e241 9a3d 984b 8a3b 78f7 1f3e ad05 d33d
00000370: 9da1 2e3e 2ffd a9bd ba98 2a3e f61a d73d
00000380: 71b9 32be 9d4b 8fbb 98dd 92bc 1cfd 2d3b
00000390: 61f0 54bd 2f2c 453d 50a3 613d 5df5 5f3d
000003a0: 4790 27bd 85a7 033d 631e a83d f9b1 903d
000003b0: e928 91bd f586 a1bd add2 393b 674f 52be
000003c0: fd21 b5bc 9b12 983d 6cfc 76bd 43a7 0dbe
000003d0: f75c 29bd 0a7d 38bd f9b5 f23d 2db9 323e
000003e0: d995 bb3c b820 9fbb 3fb5 183d da63 a4bd
000003f0: 871d 81bd f68d 08be b5fb 173d 40da 31be
-0.030846538 -0.02267135 0.013023453 0.0073833307 0.11195682 0.040174533 -0.11790144 0.023396665
0.029744642 -0.14831322 0.039996915 -0.1437258 -0.07770411 -0.11821227 0.026277708 -0.11838518
-0.056726553 -0.08709089 0.055430148 0.12524337 0.18838795 -0.04593943 0.09635193 0.10780959
0.057228964 0.08341128 0.12791425 0.011613246 0.0024620257 -0.05690282 0.02544023 -0.11502618
0.072184995 -0.052738093 0.0038308732 0.06930957 0.016164316 0.023666088 0.065829515 0.09752657
0.14024109 -0.033994783 -0.063937485 0.07440156 -0.09161085 0.020157825 0.035997417 -0.1117357
-0.18202317 -0.11541703 -0.11999273 -0.018993286 -0.17922634 0.009895709 -0.08354569 -0.16877262
-0.05038397 0.068587065 0.079130925 -0.06756689 -0.013150124 0.07814355 -0.05356996 0.11422031
0.056911483 -0.11629598 0.115042 0.13768089 -0.10738295 0.05251355 0.033273723 0.088651605
-0.03407216 -0.038544364 -0.14774483 -0.07170525 0.0768327 -0.020586528 -0.056617297 -0.027103754
0.15324183 -0.08264638 -0.032923896 -0.028364625 0.17250934 -0.05784825 0.1065345 0.08225395
0.14560802 -0.080581434 -0.008440971 -0.019377805 -0.037947353 -0.13776913 -0.025781944 0.03519876
0.057973452 -0.1691241 -0.035404097 -0.07147269 -0.018935708 0.10894211 -0.16553062 -0.09566617
0.0077329604 -0.09436696 0.056621246 0.06260102 0.17123112 -0.043466207 -0.12695223 0.009898838
0.05854282 -0.1309983 -0.13728712 -0.07614258 -0.007011288 -0.049540017 0.0370775 0.0068456405
0.01618763 0.10434505 0.034944326 0.0727982 -0.13505724 -0.17014658 0.010480385 -0.085042745
-0.02443726 0.08007324 0.07761192 0.15976372 0.0048495005 -0.094596975 0.1368159 0.05838141
-0.13439196 0.011673769 -0.11324494 -0.021601332 -0.021586936 0.036097366 -0.046146642 0.01746214
0.05884326 -0.06954593 0.04151166 -0.0237047 0.016827578 0.013844758 -0.053391904 -0.1383636
-0.011429706 -0.000117707415 0.09487267 -0.02169616 0.10599579 0.08021126 -0.013927976 0.1761587
-0.021444632 0.08416971 0.19698843 0.099393174 0.10314835 0.075341225 -0.05116474 -0.03305957
0.07059757 -0.03859913 0.006063251 0.0011005435 0.010910401 -0.003767904 -0.117165655 0.047616538
0.042039465 -0.16319898 -0.08322051 -0.05790935 -0.002750121 -0.020669485 -0.073459424 0.075971745
0.0917842 0.056859735 0.004455371 -0.022219358 0.01438808 0.07550694 0.029735135 -0.039994434
0.14562869 0.0035568646 -0.05737875 -0.20064968 0.022040864 -0.10860312 -0.08137255 -0.011979676
-0.13853846 -0.17188415 -0.040282752 -0.17807338 -0.05112735 -0.022285907 0.06893823 -0.110026844
0.114063226 -0.012554055 0.052800935 -0.0841404 -0.07819456 -0.16904235 -0.06862828 -0.037010945
0.075320974 0.0042204373 0.15621746 0.10303817 0.17053838 -0.08300244 0.16659823 0.10503189
-0.17453553 -0.0043730275 -0.01792793 0.002654857 -0.051987056 0.04813784 0.055087388 0.054677356
-0.040909078 0.03214218 0.08208921 0.070651956 -0.07087881 -0.07887069 0.0028354332 -0.20538102
-0.022110933 0.07425424 -0.060299322 -0.13833337 -0.041348424 -0.04504112 0.11851115 0.17453451
0.022898601 -0.0048561953 0.037282225 -0.08026858 -0.0630446 -0.13335404 0.03710528 -0.17368412

lstm.weight_hh_l0 f4 [256, 64]
00000000: b73f 883d 2076 c23d 4ebb 0c3e d1af fdbc
00000010: 59be 843d 7bd9 923d d1f8 8c3c 7552 3e3d
00000020: 3346 363e a827 0dbe c98d 1fbd a990 df3d
00000030: 3ecf 0abc a4fd 1ebe b324 953e e49f 8b3c
00000040: c861 a7bd 22f4 46be 3ae8 90bd 124e 35bd
00000050: b6bb e7bd 9477 b0be aaec 333d f2c2 4cbe
00000060: dca4 1fbd fba1 913e 2bdd abbd 2807 80be
00000070: 1a2a 43be 5ce1 63be 4692 9ebe 35d9 a5bd
00000080: 9544 c03d 9b99 063e 24d0 7c3e b493 893e
00000090: f74d a23e e0b2 3bbd e4be 0d3e a072 973d
000000a0: b99c 413d 8a8c c9be e2f7 c0be d292 d1bd
000000b0: cf33 0b3e 0c80 07be b2ed 7a3d 7a95 2b3e
000000c0: b50f a83b d8ee bdbc 9c5b abbd c68c 96bd
000000d0: 7b11 593d 87e8 98bd e351 e9bd 46e9 5fbe
000000e0: aab9 873c 83eb 1abd 66fd 97bd 2117 7bbe
000000f0: 060f 393e f928 893d db5e 1d3d 5503 41be
00000100: f3e1 d5bd 0043 4b3e 17c0 073e a1f9 87be
00000110: 92e9 aa3e fb99 a83d 78b7 3cbe f483 653e
00000120: 1426 353e a936 91bc 7540 9bbd 9f69 ccbc
00000130: b620 1ebe 0d31 d5bd f752 843e 1fb7 ce3d
00000140: b94a 18be 7f41 89be 2cf0 2c3d 7c8e 073e
00000150: 2d46 ee3d 0856 59be 0e58 d9bc 9f3b 933d
00000160: ca33 2b3e c173 373e 89ef 9fbc 1b08 ecbd
00000170: 9bd9 59be 71a5 ecbd c5e3 aabd 8184 80bd
00000180: e2d4 543e 1cb2 a03e c9c5 4a3e 1a3f 753e
00000190: 86a9 993e 6d82 03be 4813 b93b 697d d23d
000001a0: fff0 3c3e 7e94 dbbe b83d ddbe 9b22 4abe
000001b0: 8dd8 073e 110b 5dbe 3608 853d 1414 2cbc
000001c0: c4cb 2e3d 88a8 c23d 49db 90be 9010 0f3e
000001d0: 8430 373e ed1a 96bd 2893 28be c58c 42bd
000001e0: b78b 53bd 8845 ea3d 9502 93be df95 27be
000001f0: e6c3 4f3e 4549 f23d 95f6 b5bd 5ef2 a5be
00000200: fdd5 14be 4c28 91bd a2ae 61be 0844 a33c
00000210: dbfe 6abe a086 993d d773 0d3e a663 dc3d
00000220: 10b9 4f3e bfcd f43b 4de2 71bc 0452 8e3d
00000230: d562 cfbd fa27 dfbd 66c2 973d f00b ec3c
00000240: c135 503e 35b1 1e3e d07d be3d 24e4 14bd
00000250: 6a5f 8a3d 492a 07bd 4797 d8bc 6fbc 5bbe
00000260: da5d 983c f271 f5bc 8c68 c9bd d448 833d
00000270: 914e 253e a658 dfbc a27a 6fbc 48ce 0bbe
00000280: 923b 0bbe adb1 163e 23d9 133e 42bc efbc
00000290: c1f2 c6bd a1e7 f03d 90b0 793c c967 803e
000002a0: 3ccc 863c 4552 0b3d 9d9b 29bd 061f 14be
000002b0: 032c 433d a77c 153e ffa0 a4bd 08ce 9f3d
000002c0: cdb8 b23d eefb 0cbd cbc9 0b3d 54d5 7cbb
000002d0: 0841 183c bff2 5f3d 2869 47bd 7af1 8bbd
000002e0: 3e10 20bd 6622 32be a9ca 163d 3a13 b8bd
000002f0: f2f0 823e 489a 263e f97e e43c b094 7cbd
00000300: 5efd 923d d51f 8b3e a1cd c03b 7cdc e2bc
00000310: a3f0 6c3e 7dbf 353e f0ed 26bc 0787 bbbd
00000320: 8ea7 3dbe 77dd e93d 6120 f33c 20d8 f6bd
00000330: a11c 623d 343a 06be a4f2 3cbd 94ad 72bd
00000340: 94a7 7bbe f90b e5bc b602 81be 32ea 0b3d
00000350: 76bd b6bd 6cdf 83be ecc9 c63d e2da 223e
00000360: 6d55 683d 280c 513e 8fc2 4cbe fa18 ccbd
00000370: 5fa7 20bd 7ac0 863d 8868 e53d 0028 a4bd
00000380: 281d 293e fcd1 f53d 9456 b83d b657 75bd
00000390: 9e73 cabc 260a b03d d4ea d3bd 2458 c8bd
000003a0: 93ab da3d 7c81 52be 869d 84be 0bea 16bc
000003b0: a2b9 0f3d c359 6abe df99 fc3d f4f7 70be
000003c0: 9989 ff3d 284e 16bc d59c 15bd 67f1 a5bd
000003d0: 2f3a b9bc f13f 21be 8d69 b0bd a990 5cbc
000003e0: 3494 01bd 1b6c 603e d7a6 293c fb5c 883c
000003f0: 937a 7f3a 1563 ba3d 5d79 083a bb5b 66be
0.06652778 0.09495187 0.13743326 -0.030967625 0.064816184 0.07170387 0.017208489 0.046465356
0.17800216 -0.13784659 -0.038953576 0.109162636 -0.008472262 -0.15526444 0.29129562 0.017044015
-0.08172947 -0.19429067 -0.07075544 -0.044263907 -0.113151 -0.3446623 0.043926872 -0.1999624
-0.03897558 0.28443894 -0.08391794 -0.2500546 -0.19059029 -0.22253937 -0.30970973 -0.080980696
0.09388081 0.13144533 0.24688774 0.268705 0.31700107 -0.045824885 0.1384235 0.0739491
0.047268603 -0.39365035 -0.3768912 -0.10233082 0.13593982 -0.1323244 0.06126184 0.1675624
0.0051288255 -0.023185179 -0.083670825 -0.07351069 0.052995186 -0.07466226 -0.11392572 -0.2186633
0.016568024 -0.037822258 -0.07421379 -0.24520542 0.18072137 0.06697268 0.03842054 -0.18848927
-0.10443487 0.19849777 0.1325687 -0.2655764 0.33381325 0.082324944 -0.18429363 0.22413617
0.17690307 -0.01772626 -0.075806536 -0.024952708 -0.15442166 -0.10409746 0.25844547 0.10093521
-0.14872254 -0.26807782 0.042221233 0.13237947 0.11634479 -0.21224225 -0.026531246 0.07189106
0.16718975 0.1791525 -0.019523399 -0.115249835 -0.21274416 -0.11554993 -0.08344225 -0.06275273
0.20784333 0.31385887 0.19802012 0.23949853 0.3001215 -0.12842722 0.0056480505 0.10277826
0.18451308 -0.42886728 -0.4321115 -0.19739763 0.13266201 -0.21586253 0.06495707 -0.010502834
0.042674795 0.09504801 -0.282923 0.13971162 0.17889601 -0.073293544 -0.16462386 -0.04749753
-0.051646914 0.11439043 -0.28712907 -0.16365765 0.20289573 0.11830381 -0.088849224 -0.32411474
-0.14534755 -0.07087764 -0.22039273 0.0199299 -0.22948782 0.07496381 0.1381372 0.10761194
0.2028544 0.007470816 -0.014763427 0.06949237 -0.101262726 -0.10896297 0.074101254 0.028814286
0.20333005 0.15497287 0.093013406 -0.036350384 0.0675648 -0.03299931 -0.026439322 -0.214586
0.01859944 -0.02996156 -0.09834394 0.06410375 0.16143252 -0.02726395 -0.01461664 -0.13652909
-0.13596943 0.14716215 0.144383 -0.029264573 -0.097142704 0.1176293 0.01523985 0.25079182
0.016454808 0.034014005 -0.04140817 -0.1446496 0.047649395 0.14598332 -0.0803852 0.07802969
0.08726654 -0.034419946 0.03412799 -0.0038579302 0.009292848 0.05467486 -0.04868427 -0.068331674
-0.03907799 -0.17395934 0.036814366 -0.08988042 0.25574452 0.16269791 0.027892577 -0.061665237
0.07177232 0.27172723 0.005883888 -0.027693026 0.2313867 0.17748828 -0.010188565 -0.09156614
-0.18520948 0.11419194 0.029678525 -0.12052941 0.055203084 -0.1310814 -0.046129838 -0.05924757
-0.24575645 -0.02795981 -0.2519738 0.034158893 -0.089228556 -0.25756395 0.09706482 0.1590381
0.056722093 0.20414793 -0.19996093 -0.099657014 -0.039222118 0.06579681 0.112015784 -0.08015442
0.16515028 0.12002942 0.090008885 -0.0598981 -0.024713334 0.08595686 -0.10347524 -0.097824365
0.106772564 -0.20557207 -0.2590143 -0.009211074 0.035089143 -0.22885804 0.12334036 -0.23532087
0.124774165 -0.009173907 -0.03652652 -0.081026845 -0.022610752 -0.15747048 -0.08613882 -0.013462224
-0.03163548 0.21916239 0.010354719 0.016645899 0.0009745743 0.0910093 0.0005206073 -0.2249593

lstm.bias_ih_l0 f4 [256]
00000000: cb42 7c3e e926 6d3e 82b9 a43b 4145 833e
00000010: be12 433e 1669 793e 665d 233d 90a2 213e
00000020: cac8 1e3e 12c5 60bd 1883 1fbd 87e7 0c3c
00000030: fd81 313d bf29 443e 281c 4d3e 14f6 f43d
00000040: d15b dd3d e11b fd3d d693 f73d 1864 893e
00000050: fd0d 6f3e 677c 2d3e a88a fc3d 16df 543e
00000060: e787 47be 5378 0f3e 06f2 5abd 3164 ea3c
00000070: ae22 5e3d 79a6 babc 4ac0 1fbe 6752 e43d
00000080: 009a d43b ca72 a6bc e0b0 ebbb 3844 653d
00000090: bea4 183e 886f 913d 7971 7a3e 8f3d 063e
000000a0: 3b6a 283e 608f 113e eb27 b43d bc04 133e
000000b0: 9303 f9bc 7d99 3d3d f53b 2e3e 46cc 633e
000000c0: 7c5b a63d d456 333d 761f a13c 0abe 1f3d
000000d0: cb10 d13d c797 043e 1d55 b93d a9a7 25bc
000000e0: 7d93 6f3d 4f38 033e 9388 043e 283a 0dbe
000000f0: 7307 733e 5d9e 4b3e 4083 5e3e 383a b23c
00000100: 7baa 283d 0d7e b9bd 9b70 a6bc 4856 f5bd
00000110: 8922 e6bd 5662 a4bd 5582 353e b9ad 873c
00000120: d15e 4ebe a1cd f0bb 1862 cc3d a058 94be
00000130: b5bc 17bd d025 fbbb 30d3 04be 35c0 4bbd
00000140: aeda eb3c ac03 6c3d 64da f03d 0367 4c3d
00000150: 6125 d0bc fc8e e73d 05db 84bd e0ba 00bc
00000160: 2ad4 96bd f79f dfbc 7563 223e aab4 edbc
00000170: 1be9 c83d 0fcf 263d ca5c 18be a956 803d
00000180: 1569 dcbd 3357 b23d 5832 abbd e35e b3bd
00000190: aecc 053e 765c 10be db79 743e fa3a 523d
000001a0: 813d 093d 28f6 113e 8d17 d73c f186 bd3b
000001b0: 6323 ca3d d102 f43c 4c79 58ba ced0 81bd
000001c0: 1bfc 65bd 2967 183e 58a4 7e3b 4b64 3f3d
000001d0: 525b bf3c 6da4 3a3e fe7d b63d df65 533e
000001e0: 2238 66bd 6ca7 3d3d 6697 1ebe 76ab 9cbd
000001f0: d7d5 e2ba c54c f5bd 5008 543c 70a4 fa3d
00000200: 2bd9 babb dec2 c83d 5753 0d3d 0f1c 1ebd
00000210: a014 d53d fcc6 2a3e 5418 10be 92de fbbd
00000220: 0472 f93d 1025 e0bd b67e cd3c 4a7c e8bc
00000230: 254c 88bd a108 86bd 0012 2f3e 564b 8e3c
00000240: 2849 0bbe 6457 5abe fb81 1dbe 0a36 87bc
00000250: 4ef0 d03d 534b 67be 0d0b da3b cbe1 ab3d
00000260: 6ee3 713d 91d8 bf3d 7492 4abc 857e b8bc
00000270: 4a3b 4dbd 515b c5bd e56b 45bd 69d0 1abe
00000280: 8ac8 d03d 14aa 833d 781e dd3d c71d 5bbd
00000290: a1b4 c73d 8777 4e3c b434 1ebd 78ac 433d
000002a0: 5934 a63d 03aa 6ebd 956c 24be ad2e 88bd
000002b0: 28cc 3ebd c97f 04be 6853 dcbc 3f80 1c3d
000002c0: 802f 9b3d 62db eabd bb72 353c 086f 943a
000002d0: 4930 5f3d 6d15 0ebe bc66 c7bd 8173 b83b
000002e0: 77af 07bb 9ecd 8d3c 6091 943d e48c 58bd
000002f0: ab82 3ebe 9201 f7bb b92d 0b3d 4e15 f5bd
00000300: 0ae1 1f3e bf30 503e a2c4 753d 3f8e 9e3e
00000310: 4297 663e 8644 103e 5743 4f3e 5e71 3a3e
00000320: 7a64 9b3e f687 353d 5cff 3c3b 6197 403d
00000330: d7e0 793d cd87 e03d 1e1a 043e f977 e9bc
00000340: 053f 133c 12cf d53c 5776 273e 35a9 873e
00000350: cc1f bcbd 07c7 8cbd c8c6 e23b 0235 6d3e
00000360: eae7 26be c785 843c ba83 623d 8bf8 a0bc
00000370: 330b 843d 94c0 60bd 928a 933d 8b40 c83d
00000380: 6be1 363e f9a2 ffbc dab9 8fbd 2b88 b73c
00000390: 3214 823e a3ce 183e f8ce 6f3e 8b14 213e
000003a0: 422f e03d 1f98 6dbd bccf 5a3d 9032 683e
000003b0: 2519 ccbd b313 1b3e 2356 463e 2db5 b83d
000003c0: 966d d3bc d611 f73d e49f 333e 2503 cdbb
000003d0: d790 86bd c3c0 bf3d ca2c c63d 74bf 083e
000003e0: 4dd7 4c3d bbc6 843e 772e 113d ad57 81bd
000003f0: ba6e 523e 6e9d 073c 7db7 013e ee65 ca3d
0.24634854 0.23159374 0.005026997 0.25638774 0.19050118 0.24356493 0.039883994 0.15784669
0.15506282 -0.05487544 -0.03894338 0.008600122 0.043336857 0.1915655 0.20030272 0.11960998
0.10808528 0.12358833 0.12088744 0.26834178 0.2334518 0.16941987 0.12331134 0.20788226
-0.19485436 0.14010744 -0.053453468 0.028612228 0.054232292 -0.022784458 -0.15600696 0.111485295
0.006488085 -0.020318408 -0.007192716 0.05597326 0.14906594 0.07101351 0.24457349 0.1310942
0.16446774 0.1421485 0.08796676 0.14357275 -0.030397212 0.046288956 0.1701506 0.22245893
0.08122918 0.043783978 0.019668322 0.038999595 0.10208281 0.12948523 0.09049437 -0.010110774
0.058490265 0.12814449 0.12942724 -0.13791716 0.2373331 0.1988463 0.21729755 0.021756276
0.041178208 -0.090572454 -0.020317366 -0.119793475 -0.11237056 -0.080265686 0.17725499 0.01656233
-0.20153357 -0.0073487316 0.099796474 -0.28973866 -0.0370452 -0.0076644197 -0.12971187 -0.04974385
0.028790798 0.05762069 0.11760405 0.049902927 -0.025408449 0.11306569 -0.06487087 -0.0078570545
-0.07364686 -0.027297957 0.15858252 -0.029016811 0.09810086 0.04072481 -0.14879146 0.06266529
-0.1076223 0.08708038 -0.08359212 -0.087583326 0.1306636 -0.14097771 0.23874609 0.051325776
0.03350592 0.14254057 0.026256347 0.0057839085 0.09870031 0.0297865 -0.0008257821 -0.063386545
-0.05614863 0.14883102 0.003885528 0.046726506 0.023358975 0.18226786 0.0891075 0.2064433
-0.056205876 0.046302244 -0.15487441 -0.07649891 -0.0017306161 -0.11977533 0.012941435 0.12238395
-0.005702158 0.09802793 0.034503307 -0.038600978 0.104043245 0.16677469 -0.1407178 -0.12298311
0.1217995 -0.10944569 0.025084835 -0.028379578 -0.066551484 -0.065446146 0.1709671 0.017369907
-0.13602126 -0.213224 -0.15381615 -0.01650526 0.102020845 -0.22587328 0.0066541494 0.08392676
0.059054784 0.09367479 -0.012364019 -0.022521267 -0.05010537 -0.09636558 -0.0481986 -0.15118565
0.101945 0.06428924 0.10796827 -0.053495195 0.09751249 0.01260174 -0.03862448 0.0477719
0.08115453 -0.058267605 -0.16057046 -0.06649528 -0.046581417 -0.12939371 -0.02689524 0.038208243
0.07577419 -0.11467625 0.011074717 0.0011324594 0.054489408 -0.13875361 -0.09736392 0.0056290035
-0.002070395 0.01730996 0.072542906 -0.05286874 -0.18604533 -0.007538029 0.03397915 -0.11966954
0.1561319 0.20331095 0.060001977 0.309679 0.22518638 0.1408864 0.20240532 0.18207309
0.30350095 0.044319116 0.002883873 0.047019366 0.06100544 0.10963402 0.12900588 -0.02849959
0.008987193 0.026099715 0.16353737 0.26496282 -0.09185752 -0.06873899 0.006920669 0.23164752
-0.16299406 0.016177071 0.055301405 -0.019649765 0.064474486 -0.054871157 0.072041646 0.097779356
0.17859428 -0.031205641 -0.0701787 0.022403797 0.25406033 0.14922576 0.23418796 0.15730493
0.10946514 -0.058006402 0.053420767 0.22675538 -0.099657334 0.15144233 0.19368796 0.090189315
-0.02580909 0.12063949 0.17541462 -0.0062564784 -0.06570595 0.09362938 0.096765116 0.13354284
0.050010014 0.2593287 0.035444703 -0.06315551 0.20550051 0.00827728 0.12667651 0.09882723

lstm.bias_hh_l0 f4 [256]
00000000: 8747 753e 8abb ab3e 719e a0bd d0bc c93e
00000010: fc1c 383d d388 033e 04fc 413e 3bff 493e
00000020: 2943 823e bd34 b0bd 9737 273e 7091 393e
00000030: 1796 8bbd f579 b43c 5c16 8a3e 29d6 2e3d
00000040: 2140 44ba fa14 933d 9b1b 4a3e 8b5c 843e
00000050: 02f7 6d3e b99e 333e b9a1 8d3e 4989 803e
00000060: 0a68 f9bd 7691 813d f918 2c3e dedb 8e3d
00000070: 5b20 ff3d c90f d33d a050 f4bd 9a8d 553d
00000080: 798b a33d 53f8 d23d 36b5 9cbd 8698 24bb
00000090: 11fb 263e 8c3f 953e db9d 373e 0fb9 1c3e
000000a0: 087b dcbc 978e 443e 84f7 da3c 16ce 883e
000000b0: b0a1 94bb bbe5 0d3e cb0a 2a3e ae7e 023e
000000c0: 2b4d b13d e4a9 063e 362e 373e 6408 153e
000000d0: 7f0e 8dbd fe90 ca3c 3028 0c3c 7a04 71bc
000000e0: 6b02 9b3d 18e6 0d3e 81a1 063e bd4c 87bd
000000f0: b021 a33e f22f 633d 44a8 3f3e c15e 5c3d
00000100: 1c57 693d 15a4 f5bb f143 1fbe 597d e6bc
00000110: 2f8c d7bc e2c7 9bbd c238 a8bb 7e6e e2bd
00000120: a930 63be 96f2 523e e849 173e cf07 8ebe
00000130: 54a2 013e 8b7f 243e 99fe 0bbe c35d 4a3c
00000140: 9622 a13d 0801 7e3c 7ab8 c4bc 44a8 b53d
00000150: 597b 05be de55 093e 051a d7bc 5acb 0b3e
00000160: a60b fabd 3a7a 983d a01b 9dbb 95fd 1dbe
00000170: 1d3d 3dbc d836 04bd 05e7 333d 8a3b e5bd
00000180: 6992 4bbd 8908 a53d a12d 5abd 44ef e03c
00000190: e95d 123e 5970 58be 6622 dd3d 5d40 abbd
000001a0: b558 293c 5e65 a93d 9015 043d 1725 2d3e
000001b0: 75e6 3c3e 4b71 963d 8308 2abe 58f5 c2bd
000001c0: 1697 8cbd c343 1c3e 100c ec3d ec8b f6bb
000001d0: 99d2 9a3d cd30 393e d020 3c3d 4897 313e
000001e0: 4852 0e3c badc f3bd 7481 a9bd f61a c0bd
000001f0: bc67 a9bd d425 ed3b c52c 0dbc bc63 ae3c
00000200: bda2 b83d b8d6 333e a15e 3f3c c039 693b
00000210: 48c9 e63d 5f3f 82bc d62a 97bc 994e 023c
00000220: 744c a7bd 6380 07bd e828 223e 20ef bcbd
00000230: 0a7a 863d 875c 2cbd a2ae c7bc 8567 fd3d
00000240: 18db 153d 6bc2 9b3b 67d6 a2bd 9863 14bc
00000250: fb51 55bc 47d1 67be fb8e 4a3d 8191 19bd
00000260: f541 d73c fbff c63d 71b0 ddbd 2ba6 413c
00000270: 3be5 573d 7d30 d5bd 11ee 8bbb 5ccf 60bd
00000280: f726 343e 25f7 193e 9ba2 da3d 9f6c 0a3e
00000290: 1804 01bd bba7 b43d 1bde c9bc e225 dcbd
000002a0: 039b d23d deb5 40be 9800 47be bc40 39bd
000002b0: 616d ed3d fe04 33be e68f ca3c 046d 9abd
000002c0: c87e 1bbc 0c53 8fbd 8765 adbd a8a4 29bd
000002d0: 24dc 80bc 674f 92bd c3d3 603d ee3e ebbd
000002e0: 985c a8bd 2d57 c53d 0835 9a3c 6a79 4ebe
000002f0: 4c89 003d 0c33 4138 dcb1 4c3d 29b3 80bd
00000300: d9d1 2b3e 4822 2c3e a940 16bd a862 ad3e
00000310: 14de 27bb 89e7 f43d 3ee5 873d 950c ee3d
00000320: c86c 683e 8911 9ebc 2463 a53d c265 a43d
00000330: 7994 4a3e 8afb 813d 37e2 2b3e 1ee8 c83a
00000340: 8d7d 5ebc 4512 9d3d 05e0 8e3e 06f6 073e
00000350: ced5 c5bd 99b4 e63d 6390 353e 35c3 193e
00000360: c33d abbd 7a96 243d b5c4 373d 8baf 34bd
00000370: e5e2 173e e849 5dbc e51b a73c d8db 07bd
00000380: ca65 103e eb85 c43b b27e 2a3c d93a ebbc
00000390: 3705 0b3e 3cb3 453e ddec 8d3d c28c 01bd
000003a0: 06ba 14bd a161 983d edb2 293e f248 863e
000003b0: 51b7 443d cd82 343e bc19 0b3e 7a5e 723d
000003c0: 576c 0e3e cbae 883d 3972 343e 42cf 063e
000003d0: 0e6b 44bc 6e5b cf3d f884 3a3e b68e f13c
000003e0: fb8a bc3d c2f2 1b3d e5a2 2d3c 7ce5 04be
000003f0: cf96 b63e eef1 dc3d d776 2b3e 0e6e 893d
0.23953067 0.33541518 -0.0784272 0.39401865 0.044949517 0.12845163 0.18943793 0.19726269
0.25441864 -0.08603809 0.163298 0.18121886 -0.06815737 0.02203081 0.26970184 0.042684708
-0.00074863626 0.07181735 0.19737093 0.25851855 0.23238757 0.17541017 0.27662447 0.2510474
-0.12178047 0.063265726 0.16806401 0.0697553 0.12457343 0.10305745 -0.119294405 0.052136995
0.07985587 0.1030127 -0.07651751 -0.0025115325 0.16306712 0.29150045 0.17931311 0.15304969
-0.026914135 0.19195019 0.026729353 0.2671973 -0.004535876 0.13857166 0.1660568 0.12743637
0.08657297 0.13150746 0.17888722 0.14553982 -0.068875305 0.02472734 0.008554503 -0.01471054
0.075688206 0.13857305 0.13147546 -0.066064335 0.3186164 0.055465646 0.18716532 0.053801302
0.05696784 -0.0074963667 -0.15553261 -0.028135942 -0.026311962 -0.07606484 -0.005133719 -0.11056231
-0.22186531 0.20600352 0.14774287 -0.27740332 0.1265958 0.16064279 -0.1367134 0.012351456
0.07867925 0.015503176 -0.024013747 0.08869985 -0.13035335 0.13411662 -0.026257524 0.13651791
-0.12209253 0.07445188 -0.004794553 -0.15428765 -0.011550215 -0.032278866 0.04392149 -0.11192997
-0.049700174 0.080582686 -0.05326617 0.02745784 0.14293636 -0.21136607 0.107975766 -0.08361886
0.010336091 0.082712874 0.032247126 0.1690868 0.18447287 0.07345828 -0.1660481 -0.09519452
-0.06864755 0.15260224 0.11525738 -0.007524004 0.075596996 0.18085022 0.04592973 0.17342865
0.00868661 -0.119073346 -0.08276644 -0.093801424 -0.08271739 0.0072371755 -0.008616631 0.021287791
0.09015415 0.17562377 0.011680276 0.00355874 0.1126886 -0.015899358 -0.018453043 0.007953309
-0.08168879 -0.033081423 0.15835917 -0.09225297 0.06566246 -0.04208043 -0.024375264 0.123732604
0.036585897 0.004753401 -0.0795105 -0.009056948 -0.013020034 -0.22638427 0.049452763 -0.03749228
0.026276568 0.09716793 -0.10824669 0.011819403 0.052708846 -0.10409639 -0.004270323 -0.054885253
0.17592989 0.15035684 0.10675546 0.13517998 -0.031498045 0.088210545 -0.024642041 -0.10749413
0.102834724 -0.18819377 -0.1943382 -0.04522775 0.11593128 -0.17482373 0.02472682 -0.07540324
-0.009490676 -0.06998262 -0.084666304 -0.041416794 -0.015729971 -0.07144051 0.05488945 -0.11486612
-0.08220786 0.09635768 0.018824115 -0.20163503 0.031380937 4.6062327e-05 0.049974307 -0.06284172
0.1677927 0.16809952 -0.03668276 0.3386433 -0.0025614547 0.11958224 0.06635521 0.116234936
0.22697747 -0.01929547 0.0807555 0.08027221 0.197832 0.063468054 0.16785513 0.0015327965
-0.013579738 0.076695 0.27905288 0.13277444 -0.09659921 0.11264915 0.1773086 0.15015872
-0.083613895 0.040182568 0.04486533 -0.044112723 0.14832647 -0.01350639 0.020399043 -0.033168644
0.1410133 0.0059974096 0.010406183 -0.028714584 0.13576208 0.19306654 0.06929944 -0.031628378
-0.03631022 0.07440496 0.16572161 0.26227528 0.048026387 0.17628022 0.13584036 0.05917213
0.13908516 0.06673964 0.17621697 0.13165 -0.011988414 0.10124861 0.18214786 0.029486995
0.09206196 0.03807331 0.010597919 -0.12978166 0.35661933 0.10788332 0.16744553 0.067104444

lstm.weight_ih_l1 f4 [256, 64]
00000000: d758 59bb f104 143c 3e88 d23d 36b9 24be
00000010: 6728 663a 5878 a93d 6eef 5fbd 8d6c bc3c
00000020: c5df e8bd aae8 c23d d07d 05be b293 e93c
00000030: a951 b03c 826e 32bd f777 c5bc 4ab8 d0bb
00000040: 3ac4 5dbe 1859 99bc 2033 15be ef27 1b3d
00000050: 66dd 12be 1045 39be 69af e9bd be94 ee3c
00000060: 08ae dcbc ff54 a83d 0291 d53d aa2a 33be
00000070: 026c 7f3d 21c6 2bbe 7b31 9d3d 79ae 363d
00000080: d321 7f3d cdfb 0abe 194f 53bd c8f5 9d3d
00000090: 616f 6b3d d73b 3fbd 15d5 dcbd c49f 263d
000000a0: 40af 9e3d f108 05be 9af5 923c 01ab 373d
000000b0: 6f60 113d 8d5c edbd 49dc b6bd a57f 10be
000000c0: 3d0a 2b3c 83db 97bd d892 e53c 7bc8 76be
000000d0: 57ce 99bc 7240 c6bd 2f00 393e 7a3e 0e3e
000000e0: f5f8 643d 7262 3bbe c001 3b3e d456 e63d
000000f0: 6426 f03d bd88 863d 9b0c 7fbd d2fd d0bd
00000100: ce10 a4bd 3fee b1bd 23af 643e 3dbc c8bc
00000110: b897 803e e36e ec3c 22ee 9c3b e50d 11bd
00000120: 6a72 f03d d25d 273e f073 ce3d 6ddb 07bd
00000130: 2d22 9c3d 7e82 01be 6b0f 2abd a8c2 3d3e
00000140: 86bd 77be 8247 c63c 65d3 c83d bb80 993c
00000150: d3e4 dfbd f315 37bd 0b77 863d 3eb1 883e
00000160: 974a 643d f81c 42bd d0b4 74bd bf58 29be
00000170: f533 c93b ca80 14be 948d 843e 9b88 44be
00000180: 3a90 7c3d 8ce1 8a3d 96f9 32be 8e63 c53d
00000190: 0843 e1bc 15eb 29be 41b0 62bd a48a 63bd
000001a0: 7496 953c 2558 0fbe 4e96 993b 1d0a 5c3e
000001b0: 50cc b43b ea87 58be 3d8f f0bd e1aa 99bd
000001c0: d9b0 ee3c bd24 333d 19c2 f7bd b68d d03d
000001d0: 877a b6bd 3ce1 2aba e6cd f53d 1e23 643d
000001e0: 4d4f 64bd f722 033d 2737 1e3e fc92 da3d
000001f0: 57f6 f43d c03c eb3d b6d6 90be 6c62 aebc
00000200: aad9 bcbc 704c 7f3d 0807 c0bd 2b97 35be
00000210: 9065 aebc 0cfd 673e 9a8a b63b 0e9c 56bd
00000220: 4e20 c8bd 8628 d6bd 6e5b 2e3e 8c30 013c
00000230: 1653 95bd d90f 343e 47c4 d0bd 0c43 8bbb
00000240: 75ce e3bd 8c7c dfbd c542 44be 3f1b f63d
00000250: 6c4b 773d f257 f7bd 1930 233d 77ea a03b
00000260: 73dc 28be 9f70 633d dece afbc cdd0 cf3d
00000270: f821 e33d c4a9 b03d 4d0b d23c 4d0d 8bbd
00000280: 15d1 403d 84f3 9b3c 341d b0bb 1ef3 6d3d
00000290: 1b73 023e 5110 12bc da87 b63d 8e20 f9bc
000002a0: 8ae6 cc3c 30c4 e6bd 0996 ecbd a051 573c
000002b0: fd87 a6bd 7c0d 38bd af8b 933d 2bcf cc3d
000002c0: 8173 5ebd c578 51bd 3f4a 483e 03d2 0ebe
000002d0: c72f 6ebc d52c d1bd 2666 7fba 0feb c83d
000002e0: 76d2 313d 560e d2bb 9c27 d73c 1820 96bd
000002f0: d14a d4bd d842 bcbd e718 2f3d 77be 68bd
00000300: 0f7b bbbd 8429 ad3d 238d bbbd 6011 02bd
00000310: 6d65 cbbc 6dc1 8c3e 9813 f0bd b581 123b
00000320: 8682 0fbd d7b6 46bc dccb 333d e7d4 603d
00000330: 4ba2 813d 9667 f9bb f9d0 ccbc 0476 513d
00000340: f389 eebd adc7 dfbd 9894 d73c 9694 fa3d
00000350: 48c4 1fbe 17c2 283d a673 54be 743f 86bc
00000360: 52e8 d4ba 936f ac3c 3dbf 703d e4da afbd
00000370: 46fe 013e dc55 a3bd 5d2f 5fba 7e4e e2bd
00000380: 9b7e c7bc 47f4 2ebd e146 733c e406 91bd
00000390: ee3e 15be d15d 61bd a013 723e 86ec 35be
000003a0: fc36 3e3d 33f3 af3d b6b3 f5bc e329 9cbd
000003b0: 6842 d7bd 79bb 22bd d396 14bd 5930 29be
000003c0: 3ea7 293e 2ecd 283e e80a 39bc a7b0 17be
000003d0: e48e 86bd b710 2dbd 2acf 43bd 9f85 363e
000003e0: 38bd 08be 607e 703c f2aa ef3d fb0a aebc
000003f0: 5b1f 243e 719e 8d3d e999 a03d 3788 f8bd
-0.0033164525 0.009034381 0.102798924 -0.16086277 0.0008779824 0.08274907 -0.054671697 0.02300098
-0.11370806 0.095170334 -0.13036275 0.02851281 0.021523314 -0.04356242 -0.024105055 -0.006369625
-0.21656886 -0.018719241 -0.14570284 0.03787988 -0.1434227 -0.18092752 -0.1141041 0.02912366
-0.026938453 0.08219337 0.10428049 -0.17496744 0.062358864 -0.16774799 0.07675453 0.044599984
0.062288117 -0.13572617 -0.051589105 0.07712895 0.057479266 -0.046687927 -0.1078283 0.040679708
0.0774827 -0.12991692 0.017939378 0.044840816 0.035492357 -0.11589918 -0.08928735 -0.14111193
0.010439453 -0.074149154 0.028024122 -0.24099915 -0.018775148 -0.09680261 0.18066476 0.1389102
0.055901486 -0.18299273 0.18262386 0.1124703 0.117260724 0.065690495 -0.06226788 -0.102046624
-0.08011018 -0.0868802 0.22332434 -0.024503822 0.25115752 0.028861469 0.00478913 -0.03541364
0.11740573 0.16344383 0.10080707 -0.033168245 0.07623706 -0.12647435 -0.04151861 0.18531287
-0.24193391 0.02420402 0.09805945 0.018738141 -0.10932317 -0.044698667 0.065656744 0.26697725
0.055735197 -0.047390908 -0.05974275 -0.1653776 0.006140227 -0.14502254 0.25889266 -0.19192736
0.061660983 0.06781301 -0.17478022 0.09638129 -0.027497783 -0.16593583 -0.05534387 -0.05555214
0.018260218 -0.13998468 0.004687107 0.21488233 0.00551752 -0.21145597 -0.117460705 -0.07503296
0.029137062 0.04373621 -0.12097568 0.10183279 -0.08910089 -0.0006518548 0.12002163 0.055697553
-0.05573969 0.032015767 0.15450726 0.10672566 0.11961048 0.114861965 -0.2828881 -0.021287166
-0.023053009 0.062328756 -0.09376341 -0.17733447 -0.021288663 0.22655123 0.005570722 -0.05239492
-0.09771787 -0.10456948 0.17027065 0.00788511 -0.07291238 0.1758417 -0.10193687 -0.004249936
-0.11123363 -0.10912427 -0.19166096 0.120169155 0.060374662 -0.12077321 0.03984079 0.004910763
-0.16490345 0.055527326 -0.021460947 0.101472475 0.110904634 0.0862613 0.025640154 -0.06789646
0.047074396 0.019037016 -0.005374575 0.058093183 0.12739222 -0.008915023 0.089126304 -0.030411031
0.025012273 -0.112678885 -0.115520544 0.0131420195 -0.081314065 -0.044934735 0.07204377 0.10000452
-0.05430937 -0.051140565 0.19559573 -0.139473 -0.014537758 -0.10213629 -0.00097426993 0.09810459
0.0434136 -0.0064104004 0.026264004 -0.0733034 -0.103658326 -0.09192437 0.042748358 -0.056822266
-0.09154331 0.08455184 -0.09157779 -0.03175485 -0.024828637 0.27491322 -0.11722487 0.0022355143
-0.035036586 -0.012128553 0.043895587 0.05489054 0.06329783 -0.0076112254 -0.02500199 0.05113794
-0.116474055 -0.10926757 0.026315972 0.12235372 -0.15602219 0.041200723 -0.20747241 -0.016387679
-0.0016243553 0.021049296 0.05877613 -0.08586672 0.12694654 -0.07975361 -0.00085138326 -0.110501274
-0.024352362 -0.04271343 0.014848442 -0.070813924 -0.14574787 -0.05502111 0.23640299 -0.17766008
0.046439156 0.085913084 -0.02999292 -0.07625177 -0.10510713 -0.03972957 -0.03627665 -0.1652235
0.16567704 0.1648452 -0.011294104 -0.14813481 -0.06570223 -0.04225227 -0.04780499 0.1782441
-0.13353431 0.014678568 0.11702527 -0.02124547 0.16027586 0.06914986 0.07841856 -0.12135356

lstm.weight_hh_l1 f4 [256, 64]
00000000: f0cf 0f3e 278d 6abe 7795 403e d0ba a33c
00000010: 1aca de3c 358e d7bc 09b7 743d 1887 b3bd
00000020: 2f08 f3bd 8a5a 3a3e 0259 173e cc04 fbbd
00000030: 944f 9abe 1065 513e fe02 1b3e 710f 4dbe
00000040: 49a0 943d 2f04 20be b277 f73c 9065 373e
00000050: aaf0 1b3e d70c 693e 9820 f03d 8435 c1bd
00000060: ef44 073d 3c68 c0bc 7142 123e 93ed 39be
00000070: fe7c f2bc 188a 53be ea55 133e e7e9 8d3d
00000080: 1a32 5ebe 8134 81be d235 92bc a565 8a3e
00000090: c9ef eabd 6af8 693d dc9b 753e 2bc9 6d3e
000000a0: 857f 723d 4192 463e dee0 84bc d2cd fbbc
000000b0: 38a8 d2bd 0b0a 28be eac4 c1bd ebdb 81bd
000000c0: dd01 193e e9d4 20bd 759b 88bd e9bf afbd
000000d0: 6e19 513e 324f 233d a430 c6bd fbad bb3d
000000e0: 3392 573e fd77 f03d 1aeb 85bc 2ca9 0c3c
000000f0: 8dbc 323e 0ece 803e 8968 be3c 8af9 3f3e
00000100: b073 d4bd 517e 2abd 6e34 f73d 7e51 dbbb
00000110: 23fd 7a3e b627 43bd 51f4 a43c 06e9 23be
00000120: 0cbf 22be 99aa 223e 55ee 3dbc d981 663d
00000130: 28af 94be 6539 83bc 70a3 e6bd 94b9 81bd
00000140: 0b11 603e a11e d53b c295 e8bd b980 fe3d
00000150: c0f1 09bd cffb c0bd 50f7 d03c 0afe e2bd
00000160: 217b a13e 13ec bebd 8316 6a3e 6349 0abd
00000170: f517 68be 1478 01be 03e1 8bbd 2a56 853c
00000180: 0746 383d 0758 5abe 1847 fcbd 589c bb3d
00000190: 99b0 b9ba 4f6d 44bd e7e0 c3ba d2cd e4bc
000001a0: bb06 18be 621c 173d 3c68 643d 612c 193d
000001b0: a50c 8abe 4793 71bc 6ac7 e0bd c54f 8e3c
000001c0: 2273 f8bc d8bd 55be 8dd0 8abb 6298 b8bd
000001d0: bef1 f63b 14f0 f03d dd04 ba3d 75f4 e03b
000001e0: 0b57 403d 5abf f83c 964c 3a3e 8b93 173e
000001f0: cd17 4a3e 22be f23d ee05 a7bd 60fc e9bc
00000200: 61f8 0cbe c093 3ebd 1fbe 0b3e 4c80 0abe
00000210: 10f3 5b3e 3e17 acbd 80c1 21bd 38ac 24be
00000220: bcaa 9f3b 9448 403e c681 cebd c719 123e
00000230: 524e fabd 8c4f e23d fcdd aebd 73fc 603d
00000240: 7087 aa3d ec4e 4cbc 8298 293e 7245 91bd
00000250: 1f1e c03d 1d25 8a3c 958f 06bd 045d 0bbd
00000260: 67e5 403e ebd8 233e 9463 6d3e bca7 08be
00000270: abcf 2d3e 85a7 1abd 9c68 1f3e a01f 21bd
00000280: a1b8 d3bd 016f 38be 4a6c d0bd a3c9 103e
00000290: 01f8 1ebd e3b9 393d 7b21 693d 4e64 ebbc
000002a0: 5bf1 87bd 760e 643e bcf0 90bc b5f3 743c
000002b0: dd81 58bd 9aaf 20bd 1d28 d2bd ef3c 9e3d
000002c0: e112 c4bd e153 213d 6b4b 04be 6006 193e
000002d0: b511 ee3d 10be b6bd 2be2 adbc 617d 85bd
000002e0: 6bca 573d 86cb 53bd f26f aa3d 91eb 9c3c
000002f0: cbf4 563d a5bd 8f3d d1ad 45be 5929 0e3e
00000300: b33c 35be 08bb f9bd d35d c03b 8969 05bc
00000310: 29ec 453e f087 1fbd 21f4 41bb ad5c 4abc
00000320: 1f2f c0bd 623d 243e 91c0 633d 9798 36be
00000330: b912 5bbe 08a4 db3d bb8f 103d 8552 b3bd
00000340: 2494 173e 5f8d 81be 20d0 84bd 5a2b 613d
00000350: 4db0 043d 0437 8d3d 462d 273e dc37 67be
00000360: 3419 f33d e8fb 813b 53de 5f3e 9b04 25be
00000370: fd13 79be 51fa c8bd 3d18 92bd 1ce6 953d
00000380: 64e8 a9bd af36 30be 0060 93be 86cd 2e3e
00000390: 0168 26be 70a7 81bc e1d3 823e b482 4a3e
000003a0: 302d e3bd c718 a1ba d1ea b7bd f149 f63d
000003b0: 70d5 0bbe a8c8 88be 4154 8abd d21f 4dbd
000003c0: 4a7d f1bd a5f8 a9bc 1346 18bd 4462 1abe
000003d0: cc0c f03d 0d07 903d 7d37 5cbe 72b7 3ebc
000003e0: fb64 c83d 679d 643e a4c4 60bc 9ef3 633e
000003f0: 5b2a d03c 2867 e8bc e9e4 e43d a1e1 3a3e
0.14044166 -0.22905408 0.18807016 0.01998654 0.027195979 -0.026312927 0.05974487 -0.087660015
-0.11866795 0.181986 0.14780048 -0.12256774 -0.30138838 0.20448709 0.1513786 -0.20025422
0.072571345 -0.15626596 0.030208442 0.17909837 0.15228525 0.22758804 0.11724967 -0.094340354
0.033024725 -0.023487203 0.14283158 -0.18157034 -0.029600617 -0.20658147 0.14388242 0.06929379
-0.216988 -0.2523537 -0.01784793 0.27030674 -0.11471517 0.05712167 0.23985237 0.2322127
0.059203643 0.19391729 -0.016220506 -0.030737791 -0.102859914 -0.16410081 -0.094613865 -0.06340774
0.14942117 -0.039265547 -0.06670276 -0.08581526 0.20419857 0.03987045 -0.09677246 0.091640435
0.21051864 0.11741636 -0.016347457 0.008585256 0.17454739 0.25157207 0.023243206 0.18747535
-0.10373628 -0.04162437 0.12070547 -0.0066930642 0.24510626 -0.047645293 0.02013603 -0.1600686
-0.15893191 0.1588539 -0.011592467 0.056276176 -0.29039884 -0.016018579 -0.11261642 -0.06334224
0.21881501 0.0065038954 -0.11356689 0.12426896 -0.033677816 -0.09423029 0.025508553 -0.1108361
0.31539252 -0.09322371 0.2286015 -0.033761393 -0.22665389 -0.12643462 -0.06830027 0.016276438
0.04498866 -0.21322642 -0.123182476 0.091606796 -0.001416701 -0.047955807 -0.0014944345 -0.027930174
-0.14846317 0.036892302 0.05576347 0.03739584 -0.26962772 -0.014744586 -0.10975535 0.017372021
-0.030328337 -0.20873201 -0.004236287 -0.0901344 0.007536142 0.11764541 0.09082959 0.006865079
0.04695801 0.030364681 0.18193278 0.14802377 0.19735642 0.11852671 -0.08155428 -0.028562725
-0.13766624 -0.046527624 0.13646744 -0.13525504 0.2147944 -0.084028706 -0.039491177 -0.16081321
0.004872648 0.18777686 -0.10083346 0.14267646 -0.1222197 0.110503286 -0.08538434 0.054928254
0.08326614 -0.012469988 0.16562083 -0.07093324 0.09380745 0.0168634 -0.032851774 -0.034024253
0.1883751 0.16000716 0.23182517 -0.13345236 0.1697375 -0.037757415 0.15567249 -0.0393368
-0.103379495 -0.18011095 -0.101769045 0.14139418 -0.038810734 0.04534329 0.056916695 -0.028734352
-0.06637832 0.22271141 -0.017692916 0.014950682 -0.052858222 -0.039229967 -0.10261557 0.07726466
-0.09573913 0.039386634 -0.12919395 0.14943838 0.11624471 -0.0892297 -0.02122601 -0.06518055
0.052683275 -0.051707767 0.08322133 0.019155296 0.052479547 0.07018594 -0.19304587 0.1388296
-0.17698936 -0.121938765 0.0058705597 -0.008142837 0.19328369 -0.038948 -0.0029594975 -0.012351197
-0.09383988 0.1603904 0.055603568 -0.17831646 -0.21393861 0.10724646 0.035293322 -0.08755974
0.14802605 -0.2530317 -0.06485009 0.054972984 0.032394696 0.06895259 0.16325864 -0.22579902
0.118700415 0.003966797 0.21862154 -0.16115038 -0.24324031 -0.09813369 -0.07133529 0.073192805
-0.08296278 -0.1720836 -0.2878418 0.17070588 -0.16250612 -0.01582691 0.25552276 0.19776422
-0.11092603 -0.001229071 -0.089803346 0.12025822 -0.13655639 -0.2671559 -0.067543514 -0.050079174
-0.11791475 -0.020748446 -0.037176203 -0.15076548 0.11721191 0.07032595 -0.21505542 -0.011640416
0.097848855 0.22325669 -0.013718758 0.22260901 0.025410822 -0.028369501 0.11176474 0.18250133

lstm.bias_ih_l1 f4 [256]
00000000: 97f3 7bbc c5e7 c53d b3af 69bd c3ad e63d
00000010: 1779 eb3c 8cb4 b53c ce2e 4a3e 173a e83d
00000020: e1ae 283e a7e8 8f3d 19d6 273e df84 593e
00000030: 44be 143e 2a23 8a3d 4f5d 393e 1415 5b3e
00000040: 24e9 7f3e f0cb 033d 48c6 963c 5c8b aa3d
00000050: 7a6f ab3d ba90 b53d 9dd1 303e 6dd8 863d
00000060: 18fb 88bb 0df9 3a3b d7f2 253e 7eaf 5a3d
00000070: 2180 533e a06b 773e 7c43 823d 0b7f fe3d
00000080: f0e7 04bc d8c9 fdbc c623 2a3e 486f 583d
00000090: c8bd 8d3d b570 0f3d ef18 753d a659 343d
000000a0: 15f9 bd3d 4a97 d83c b67c 753e 1967 7e3e
000000b0: e579 473e 4214 3fbd 8018 8d3c 53db 073e
000000c0: 2d1d c03d f8f3 083e 6d92 1b3d fb8f 643b
000000d0: 1857 4f3d 6776 dd3b d2c7 ad3c d62d 7f3e
000000e0: b6cd 9e3d 8cfd 713e 7a71 393e 5f84 953e
000000f0: 4ea6 8bbd 312c 663e 90a2 253e f002 143d
00000100: 70ea 673d 8fce c03d 8d5d fcbd eace 953c
00000110: f565 35bc 3ffb 153d 3df7 3cbe 06c7 1f3d
00000120: 8e56 29bc d697 1abd fff9 033c 4de1 633e
00000130: 1450 433e 49e8 26bd fb6c 923c f775 973d
00000140: 7d36 503e 6ffe 04bd 9eee ca3c 02b9 f2bd
00000150: 597c 0f3d 4499 df3d 2133 e23d 53a9 633d
00000160: 455c e9bd 9426 f13c b332 7ebd bc14 45bc
00000170: 77f0 e2bd 237c 003e bd82 143e 91c8 dc3d
00000180: b79e 4f3d 512e e23d f6d0 003e 898b 073e
00000190: ad27 f43b 8a0e 443e c049 4cbd fffa 43bd
000001a0: e589 cbbc 0260 94bd beaf 493d a097 953c
000001b0: ca8b 043e 00ee a33d 26b3 c03c 6647 143e
000001c0: 02b5 49bd 4369 793d c3aa 3f3e 617b e83d
000001d0: b993 aa3d c253 cd3d 8cc3 ffbd b379 84bd
000001e0: bb6b 4a3e 06d8 f8bc 924f 423e ed11 8abd
000001f0: ba8a 56bc 9b3a 7d3d 0d55 193e 501e 2f3d
00000200: 440a 82bb 40fc 0dbe 93b7 4f3c 4158 c13d
00000210: adbb d2bb 9a28 04be cf13 c93d 4030 923d
00000220: c2c0 b9bc 00bf 213e 2f83 d43d 8df9 47bd
00000230: 8ca7 8bbd 6b43 333c 85d7 09bc 6a3c 2cbd
00000240: 8f8c 063e 144c debd 566b 0cbd 36fa d53d
00000250: 6788 ea3c ce0c 92bc 2c4c 583d 6a1a 02be
00000260: 4038 453d e2d8 cb3d a129 3f3e 90a1 b7bd
00000270: 7431 513d df0f 8cbd 2b0b 71bd 03a3 c4bc
00000280: 3b83 0a3b e693 d5bd 3dad a0bd 387c be3d
00000290: ff8f 52bd a657 cc3d 564c 0a3e c876 0dbd
000002a0: 7964 863d a315 a33d 16a2 913d 4b2b a83d
000002b0: f56b 903a 0b8c 59bd 7187 e7bd 71f8 07be
000002c0: 3a1c b9bd 8e58 19bd fe7d 0bbe 6d0d 8e3d
000002d0: a9b4 703d 4e1a 743d 66db 6c3c fb4b 30bd
000002e0: d5e1 983d 80cb 63bc bfe4 3a3c 88cf fc3d
000002f0: ba7f b63d d503 46ba 392a 8cbd 2ff0 3e3a
00000300: 9a0d 923c f473 9f3d 933d 3a3d e30b d53c
00000310: a663 133e ce4a f63d 21a4 4c3e 69dc da3d
00000320: c584 633c cf3c 1f3e 90ff e33c 1258 963d
00000330: 2dbd 94bd f50f e4bc 52c7 453e 25f8 f83d
00000340: dcc5 9b3e 0966 673e b725 273e dd74 583e
00000350: c73e 253e 597d 3a3e 789f 3e3e 2453 a9bc
00000360: dc12 573e 331e 603e 87e9 bf3d 091c 2f3e
00000370: 080c 4c3e 68c1 853d 0a99 253d b10d 443c
00000380: a337 abbc 9ab7 f53d b70a 0cbd f468 bd3d
00000390: e18c 443d 317e 383e 1550 0f3d 1761 d83d
000003a0: c6d0 083e cf8e 81bc 6918 683e 7c7f 013e
000003b0: 9142 2a3d d868 033e fa94 5e3d e43a 843e
000003c0: 3dc8 1d3e ad8f e63d a442 3e3e 1465 fa3d
000003d0: c09c c33d f51f 023e 2e2b 093e 5970 4a3e
000003e0: 32c6 273e 221d 343d 161c 1b3e d9b2 363e
000003f0: 7465 993c 20a4 403e 7a89 9a3d 32cc 7bbd
-0.015377901 0.09663347 -0.057052325 0.11263611 0.028744264 0.022180818 0.19744417 0.11339205
0.16472961 0.07026797 0.16390266 0.21242093 0.14525706 0.06744988 0.18102 0.2139476
0.2499128 0.03217691 0.018405095 0.08327362 0.08370872 0.08865495 0.17267461 0.06584249
-0.0041803233 0.0028529793 0.16205917 0.05339002 0.20654346 0.2416215 0.06360528 0.12426575
-0.008111939 -0.030980036 0.16615209 0.0528405 0.069209635 0.035019595 0.05983823 0.044030808
0.09276024 0.026439328 0.23973355 0.24844016 0.19480093 -0.04665018 0.017223597 0.1326726
0.09380565 0.13374317 0.03798144 0.0034875858 0.05062017 0.0067584994 0.021213446 0.24919829
0.0775408 0.23631877 0.18109694 0.29202554 -0.068188295 0.22477795 0.16175294 0.036135614
0.05662006 0.09414398 -0.12322531 0.01828714 -0.011071672 0.03661656 -0.18453689 0.039008163
-0.010335578 -0.03774246 0.008055209 0.22253914 0.19073516 -0.04074887 0.017874232 0.07395547
0.20333286 -0.03246921 0.024771985 -0.11851694 0.035030697 0.10917905 0.11044908 0.055581402
-0.11394552 0.02943734 -0.06206007 -0.012028869 -0.11081021 0.12547354 0.14502998 0.107804425
0.05068847 0.110439904 0.12579712 0.13236822 0.007451019 0.19146171 -0.04987502 -0.04784679
-0.024846027 -0.072448745 0.049239866 0.018260777 0.1294395 0.08004379 0.023522925 0.14480361
-0.049244888 0.0608914 0.18717484 0.11351658 0.08328957 0.10025741 -0.124884695 -0.06468525
0.19767658 -0.030376446 0.18975666 -0.067417 -0.013094598 0.06182347 0.1497385 0.042753518
-0.003968509 -0.13865757 0.012678045 0.09440661 -0.006431064 -0.12906113 0.09818231 0.07138109
-0.022674922 0.15795517 0.10376584 -0.048821975 -0.068190664 0.010941367 -0.0084132 -0.042049803
0.13139556 -0.108543545 -0.03428205 0.104481146 0.028629495 -0.017828371 0.05280702 -0.12705389
0.048149347 0.099534765 0.18668224 -0.089663625 0.051072553 -0.06838965 -0.05884854 -0.024003511
0.0021135348 -0.104286 -0.078455426 0.093010366 -0.051406857 0.09977655 0.13505682 -0.034537107
0.065621324 0.07963111 0.071109936 0.082113825 0.0011018502 -0.05311207 -0.1130513 -0.13278367
-0.09038587 -0.037437968 -0.13622281 0.069361545 0.05876604 0.0595954 0.014456606 -0.04304121
0.07464949 -0.013903499 0.011407076 0.12344271 0.08911081 -0.00075536716 -0.06843991 0.0007283715
0.017828751 0.07785788 0.045468878 0.026006645 0.14393482 0.120259866 0.19984485 0.10686571
0.013886635 0.1555054 0.027831823 0.07341017 -0.07262645 -0.02783964 0.19314316 0.12156705
0.30424392 0.22597517 0.16322981 0.2113833 0.16137229 0.18211879 0.1861552 -0.020669527
0.21003288 0.2188652 0.09370714 0.17100538 0.19926465 0.0653103 0.040429153 0.011966155
-0.020900553 0.1199791 -0.034189906 0.09248534 0.047985915 0.18016888 0.03498848 0.105653934
0.13360891 -0.015815167 0.22665562 0.12646288 0.04156739 0.12832963 0.054341294 0.2582618
0.15408416 0.11257873 0.18580109 0.1222631 0.09551382 0.12707503 0.13395378 0.1976942
0.163842 0.043973096 0.15147433 0.17841662 0.018725134 0.18812609 0.07545753 -0.061474033

lstm.bias_hh_l1 f4 [256]
00000000: 6f83 f23d 3a7d 273d 6e97 a53d 5d08 dc3d
00000010: 9ca5 343e 9c5e 8f3d a988 de3d b865 3e3e
00000020: ed87 473e ebd8 a03d fb45 6e3d 4dae 4a3d
00000030: 8be7 363d a4e9 eb3d 9984 4a3e e59d 2e3e
00000040: 8321 263e efef 973d 01fa b93d 7799 3f3c
00000050: 56dc 1c3e ebdf 3b3e 4703 253e 3cbe be3d
00000060: aed7 7d3d fa6f cf3d de70 1dbd bc84 1bbd
00000070: 596b 513e 9b56 bd3c ef74 ba3c 370f 423e
00000080: 629b 7dbc fcc8 803d 76f9 aa3c cf44 dfbc
00000090: b128 533d 10d3 e1bb 3520 5f3d 4bd7 0b3e
000000a0: dbf1 d43d 711e d03d 4d66 1d3d 9220 633e
000000b0: e5c8 433e dbec 413d 786d 8c3d a9f1 ea3c
000000c0: 98a7 173b a901 863d 61b1 a23d 89a2 b13d
000000d0: 88b2 f53d e227 1fbc 4af1 e43d 16b2 9a3d
000000e0: dcca 5a3e d508 5d3e dd0d 0f3e 6ecb 243e
000000f0: a5f6 c53d f6b7 363e ec98 833e 68d9 3dbd
00000100: ea5c abbb 3e84 acbd 920d a93d 14a7 2f3e
00000110: e921 3f3e 0067 943d 43a5 fbbd 45d9 c73d
00000120: dfbb 8f3d feed c2bc e06f eebc a4de 823d
00000130: 816b 34bd cefc 0e3e a10a 0d3d 5c85 db3d
00000140: 381f 3c3d 3b9f 36bd 4fe6 4cbe 4a35 27bc
00000150: efd5 8cbd 9628 81bd e0aa 1f3e 7c24 0a3e
00000160: 0f98 b7bd 9e45 493c 8a64 f7bb cfac 943d
00000170: 9a59 cdbd 1117 483e 2c1a 473b 5b47 d33d
00000180: b898 853b 5f84 023c 966c 0d3e d2cf 93bd
00000190: 37e5 233d 2bfe 573e 306e 813d 7998 91ba
000001a0: 9320 ad3d 4bda 86bd 9c9f 4c3d 3a23 4f3e
000001b0: 3951 1f3c 66d9 ec3d c64f 73bd 06aa df3d
000001c0: 2672 a03d cc43 593d e04d 5a3e 5f1c bbbd
000001d0: 7e9f f53b 72f8 873d da4b a03c c259 5f3d
000001e0: c90c 083e a416 843d c2b9 b63d eaaa a33c
000001f0: 69a1 24bd 0158 91bd b350 e8b8 b01e a33c
00000200: 6058 13bd 6323 a73b af5c c1bd 6dcc 3cbd
00000210: ecac b73d 6ed7 bfbb b056 62bd 16eb d8bd
00000220: 62a8 98bd 0e0e a33c f5f1 0c3d 6360 5e3d
00000230: e491 b63c d105 bc3d 727e 61bd af3b 9c3c
00000240: e9f8 993d f81f bdbd 4920 873d d2b3 a93d
00000250: 9435 e3bd af74 543d 3d30 883d 8b32 09be
00000260: 8be3 113e ed1b 693b 01f5 3dbc fc17 eabd
00000270: 8ea3 8ebd 45bf dabc eb6f d53d a892 ea3d
00000280: 528d 68bd 24fa ecbd 9b29 06be fcf5 523d
00000290: 351c dbbd eb90 bcbd ab8f fc3d 0256 a33d
000002a0: b59f dbbd 88c0 26bd f571 4bbd 9249 b53b
000002b0: 7342 03be 4d5e 903c 2925 013c 2b6c 59bb
000002c0: b7a6 5a3d 7fc8 f6bb f024 123d 9bfe c3bd
000002d0: 6bb5 9b3c b227 323c cf86 8d3b 486a 19bd
000002e0: 6057 fb3d 8eda 253d 2f18 a63d 39f4 223e
000002f0: aa6f 393d b369 863d 12de d13d e191 f23d
00000300: 33b7 6c3e c8b1 853d b930 173e 79d4 6f3c
00000310: f145 023e 02bb 203e ac47 073e a84d 563e
00000320: ed8a 9d3d e47a 393e bc36 193e 123e 2f3e
00000330: 6abb 9c3d 2b31 1f3d 426c 843e 3184 9c3c
00000340: beff 053e 34da 113e 5a86 8a3d f0be 143c
00000350: 4daf 863e 2e9e 643e 626a 393e 502a 183e
00000360: c345 323d 63be 7e3d 1410 2f3e 0baa ce3d
00000370: d907 cd3d dd33 c73d 3316 a83d 0974 943c
00000380: 4258 0f3e c776 283e b77b b63d 0626 c5bc
00000390: 92f7 4f3d b0a6 763e ffbf 233e 69b3 8f3d
000003a0: a8ae 1c3d 6c11 b63d 3663 413e e3d6 043e
000003b0: e20d 553d 47d5 683d 2979 493e fcdc 4c3d
000003c0: 6a36 2a3e 3d48 e13d 5aeb d83c e994 d23d
000003d0: 06cb c53d 7f05 743e 1e89 213c d087 b73d
000003e0: ca5b 3c3e 4110 523e 34c3 813e 53db a63e
000003f0: 999e 69bc 2a12 bc3d ed98 9c3e 985a 0b3d
0.11841475 0.04089091 0.080855235 0.10743783 0.176413 0.07000467 0.108659096 0.1859349
0.19485445 0.07853874 0.058172207 0.049482632 0.04465441 0.11519173 0.19777144 0.1705242
0.16223721 0.074188106 0.090808876 0.011694304 0.15318426 0.18347137 0.16114531 0.09313628
0.061973266 0.1012878 -0.038437717 -0.037968382 0.20451106 0.023112586 0.022760836 0.18951117
-0.015478941 0.06288335 0.020870905 -0.02725449 0.05155248 -0.0068916157 0.054474074 0.13656346
0.10397693 0.10162056 0.03842764 0.22180393 0.19119604 0.047345024 0.06856817 0.028679686
0.0023140665 0.065432854 0.079439886 0.08673579 0.11996943 -0.009714099 0.11178835 0.075534984
0.21366447 0.215854 0.13970132 0.16093227 0.09666184 0.17843613 0.25702608 -0.046349913
-0.005229582 -0.08423661 0.082545415 0.17153579 0.1866528 0.07246208 -0.122873805 0.09758238
0.070182554 -0.023795124 -0.02910608 0.063901216 -0.044047836 0.13963625 0.034433965 0.10718796
0.04592821 -0.044585448 -0.20009731 -0.010205576 -0.06876742 -0.06306569 0.15592527 0.1349048
-0.0896455 0.012284664 -0.007549827 0.07259523 -0.10026856 0.19540049 0.003038059 0.10316344
0.0040770434 0.00796613 0.13810953 -0.07217373 0.04001352 0.21093051 0.06319845 -0.0011108062
0.08453479 -0.06584605 0.049956903 0.20228282 0.009723955 0.11564903 -0.05940225 0.10921101
0.07834272 0.05304317 0.2131877 -0.09136271 0.0074958196 0.06639184 0.019567419 0.05452896
0.13286127 0.06449631 0.08922149 0.01997896 -0.040192995 -0.070968635 -0.000110776535 0.019912094
-0.035972953 0.005100654 -0.09441506 -0.046093393 0.08968529 -0.0058545386 -0.055258453 -0.10591714
-0.074539915 0.019904163 0.034410436 0.05429114 0.022286363 0.09180797 -0.05505223 0.019071428
0.07518179 -0.09234613 0.06597955 0.08286251 -0.110942036 0.05186909 0.06649826 -0.13398187
0.14246957 0.0035569624 -0.011594058 -0.11430356 -0.06964789 -0.026702533 0.10421737 0.11453754
-0.0567754 -0.11571148 -0.13101809 0.05150412 -0.106987394 -0.092073284 0.1233209 0.07975389
-0.10723821 -0.040710956 -0.049669225 0.005532452 -0.12818317 0.017623091 0.007882395 -0.0033176045
0.053381648 -0.007531225 0.035679758 -0.095700465 0.019007405 0.010873722 0.004319049 -0.037454873
0.12272525 0.040491633 0.081100814 0.15913476 0.045272507 0.06563129 0.10247435 0.118442304
0.2311676 0.0652805 0.1476468 0.01463806 0.12721993 0.15696338 0.13210934 0.20928061
0.076925136 0.18113285 0.14962286 0.17113522 0.07652934 0.03886525 0.25863844 0.019106003
0.13085839 0.14243394 0.06763907 0.009078726 0.2630562 0.22325966 0.18106988 0.14859891
0.04352356 0.062193286 0.17095977 0.10091027 0.100112624 0.09726689 0.08207359 0.018121736
0.13998511 0.1645156 0.089103155 -0.024065983 0.05077321 0.24087024 0.1599121 0.07016642
0.038252503 0.08890042 0.18885502 0.12972598 0.052015193 0.056844022 0.19675125 0.050015435
0.1662232 0.110001065 0.026479412 0.102823086 0.09657864 0.23830222 0.009859351 0.08961451
0.1839439 0.20514013 0.2534424 0.32589206 -0.014259004 0.09183152 0.30585423 0.034021944
